…
I1201 01:55:36.366622  2928 net.cpp:294] The NetState phase (0) differed from the phase (1) specified by a rule in layer Accuracy
I1201 01:55:36.366977  2928 net.cpp:51] Initializing net from parameters: 
name: "ResNet-11"
state {
  phase: TRAIN
  level: 0
  stage: ""
}
layer {
  name: "data"
  type: "Data"
  top: "data"
  top: "label"
  include {
    phase: TRAIN
  }
  transform_param {
    scale: 0.0078125
    mirror: true
    mean_value: 128
  }
  data_param {
    source: "/home/user/NEST-3T/dataset/face_rec/CASIA-WebFace/lmdb/train_lmdb_no_balance"
    batch_size: 256
    backend: LMDB
  }
}
layer {
  name: "conv1"
  type: "Convolution"
  bottom: "data"
  top: "conv1"
  convolution_param {
    num_output: 128
    bias_term: false
    pad: 1
    kernel_size: 3
    stride: 2
    weight_filler {
      type: "xavier"
    }
  }
}
layer {
  name: "bn_conv1"
  type: "BatchNorm"
  bottom: "conv1"
  top: "conv1"
  batch_norm_param {
    use_global_stats: false
  }
}
layer {
  name: "scale_conv1"
  type: "Scale"
  bottom: "conv1"
  top: "conv1"
  scale_param {
    bias_term: true
  }
}
layer {
  name: "conv1_relu"
  type: "ReLU"
  bottom: "conv1"
  top: "conv1"
}
layer {
  name: "pool1"
  type: "Pooling"
  bottom: "conv1"
  top: "pool1"
  pooling_param {
    pool: MAX
    kernel_size: 3
    stride: 2
  }
}
layer {
  name: "res2a_branch1"
  type: "Convolution"
  bottom: "pool1"
  top: "res2a_branch1"
  convolution_param {
    num_output: 64
    bias_term: false
    pad: 0
    kernel_size: 1
    stride: 1
    weight_filler {
      type: "xavier"
    }
  }
}
layer {
  name: "bn2a_branch1"
  type: "BatchNorm"
  bottom: "res2a_branch1"
  top: "res2a_branch1"
  batch_norm_param {
    use_global_stats: false
  }
}
layer {
  name: "scale2a_branch1"
  type: "Scale"
  bottom: "res2a_branch1"
  top: "res2a_branch1"
  scale_param {
    bias_term: true
  }
}
layer {
  name: "res2a_branch2a"
  type: "Convolution"
  bottom: "pool1"
  top: "res2a_branch2a"
  convolution_param {
    num_output: 64
    bias_term: false
    pad: 1
    kernel_size: 3
    stride: 1
    weight_filler {
      type: "xavier"
    }
  }
}
layer {
  name: "bn2a_branch2a"
  type: "BatchNorm"
  bottom: "res2a_branch2a"
  top: "res2a_branch2a"
  batch_norm_param {
    use_global_stats: false
  }
}
layer {
  name: "scale2a_branch2a"
  type: "Scale"
  bottom: "res2a_branch2a"
  top: "res2a_branch2a"
  scale_param {
    bias_term: true
  }
}
layer {
  name: "res2a_branch2a_relu"
  type: "ReLU"
  bottom: "res2a_branch2a"
  top: "res2a_branch2a"
}
layer {
  name: "res2a_branch2b"
  type: "Convolution"
  bottom: "res2a_branch2a"
  top: "res2a_branch2b"
  convolution_param {
    num_output: 64
    bias_term: false
    pad: 1
    kernel_size: 3
    stride: 1
    weight_filler {
      type: "xavier"
    }
  }
}
layer {
  name: "bn2a_branch2b"
  type: "BatchNorm"
  bottom: "res2a_branch2b"
  top: "res2a_branch2b"
  batch_norm_param {
    use_global_stats: false
  }
}
layer {
  name: "scale2a_branch2b"
  type: "Scale"
  bottom: "res2a_branch2b"
  top: "res2a_branch2b"
  scale_param {
    bias_term: true
  }
}
layer {
  name: "res2a"
  type: "Eltwise"
  bottom: "res2a_branch1"
  bottom: "res2a_branch2b"
  top: "res2a"
  eltwise_param {
    operation: SUM
  }
}
layer {
  name: "res2a_relu"
  type: "ReLU"
  bottom: "res2a"
  top: "res2a"
}
layer {
  name: "res2b_branch2a"
  type: "Convolution"
  bottom: "res2a"
  top: "res2b_branch2a"
  convolution_param {
    num_output: 64
    bias_term: false
    pad: 1
    kernel_size: 3
    stride: 1
    weight_filler {
      type: "xavier"
    }
  }
}
layer {
  name: "bn2b_branch2a"
  type: "BatchNorm"
  bottom: "res2b_branch2a"
  top: "res2b_branch2a"
  batch_norm_param {
    use_global_stats: false
  }
}
layer {
  name: "scale2b_branch2a"
  type: "Scale"
  bottom: "res2b_branch2a"
  top: "res2b_branch2a"
  scale_param {
    bias_term: true
  }
}
layer {
  name: "res2b_branch2a_relu"
  type: "ReLU"
  bottom: "res2b_branch2a"
  top: "res2b_branch2a"
}
layer {
  name: "res2b_branch2b"
  type: "Convolution"
  bottom: "res2b_branch2a"
  top: "res2b_branch2b"
  convolution_param {
    num_output: 64
    bias_term: false
    pad: 1
    kernel_size: 3
    stride: 1
    weight_filler {
      type: "xavier"
    }
  }
}
layer {
  name: "bn2b_branch2b"
  type: "BatchNorm"
  bottom: "res2b_branch2b"
  top: "res2b_branch2b"
  batch_norm_param {
    use_global_stats: false
  }
}
layer {
  name: "scale2b_branch2b"
  type: "Scale"
  bottom: "res2b_branch2b"
  top: "res2b_branch2b"
  scale_param {
    bias_term: true
  }
}
layer {
  name: "res2b"
  type: "Eltwise"
  bottom: "res2a"
  bottom: "res2b_branch2b"
  top: "res2b"
  eltwise_param {
    operation: SUM
  }
}
layer {
  name: "res2b_relu"
  type: "ReLU"
  bottom: "res2b"
  top: "res2b"
}
layer {
  name: "res3a_branch1"
  type: "Convolution"
  bottom: "res2b"
  top: "res3a_branch1"
  convolution_param {
    num_output: 128
    bias_term: false
    pad: 0
    kernel_size: 1
    stride: 2
    weight_filler {
      type: "xavier"
    }
  }
}
layer {
  name: "bn3a_branch1"
  type: "BatchNorm"
  bottom: "res3a_branch1"
  top: "res3a_branch1"
  batch_norm_param {
    use_global_stats: false
  }
}
layer {
  name: "scale3a_branch1"
  type: "Scale"
  bottom: "res3a_branch1"
  top: "res3a_branch1"
  scale_param {
    bias_term: true
  }
}
layer {
  name: "res3a_branch2a"
  type: "Convolution"
  bottom: "res2b"
  top: "res3a_branch2a"
  convolution_param {
    num_output: 128
    bias_term: false
    pad: 1
    kernel_size: 3
    stride: 2
    weight_filler {
      type: "xavier"
    }
  }
}
layer {
  name: "bn3a_branch2a"
  type: "BatchNorm"
  bottom: "res3a_branch2a"
  top: "res3a_branch2a"
  batch_norm_param {
    use_global_stats: false
  }
}
layer {
  name: "scale3a_branch2a"
  type: "Scale"
  bottom: "res3a_branch2a"
  top: "res3a_branch2a"
  scale_param {
    bias_term: true
  }
}
layer {
  name: "res3a_branch2a_relu"
  type: "ReLU"
  bottom: "res3a_branch2a"
  top: "res3a_branch2a"
}
layer {
  name: "res3a_branch2b"
  type: "Convolution"
  bottom: "res3a_branch2a"
  top: "res3a_branch2b"
  convolution_param {
    num_output: 128
    bias_term: false
    pad: 1
    kernel_size: 3
    stride: 1
    weight_filler {
      type: "xavier"
    }
  }
}
layer {
  name: "bn3a_branch2b"
  type: "BatchNorm"
  bottom: "res3a_branch2b"
  top: "res3a_branch2b"
  batch_norm_param {
    use_global_stats: false
  }
}
layer {
  name: "scale3a_branch2b"
  type: "Scale"
  bottom: "res3a_branch2b"
  top: "res3a_branch2b"
  scale_param {
    bias_term: true
  }
}
layer {
  name: "res3a"
  type: "Eltwise"
  bottom: "res3a_branch1"
  bottom: "res3a_branch2b"
  top: "res3a"
  eltwise_param {
    operation: SUM
  }
}
layer {
  name: "res3a_relu"
  type: "ReLU"
  bottom: "res3a"
  top: "res3a"
}
layer {
  name: "res3b_branch2a"
  type: "Convolution"
  bottom: "res3a"
  top: "res3b_branch2a"
  convolution_param {
    num_output: 128
    bias_term: false
    pad: 1
    kernel_size: 3
    stride: 1
    weight_filler {
      type: "xavier"
    }
  }
}
layer {
  name: "bn3b_branch2a"
  type: "BatchNorm"
  bottom: "res3b_branch2a"
  top: "res3b_branch2a"
  batch_norm_param {
    use_global_stats: false
  }
}
layer {
  name: "scale3b_branch2a"
  type: "Scale"
  bottom: "res3b_branch2a"
  top: "res3b_branch2a"
  scale_param {
    bias_term: true
  }
}
layer {
  name: "res3b_branch2a_relu"
  type: "ReLU"
  bottom: "res3b_branch2a"
  top: "res3b_branch2a"
}
layer {
  name: "res3b_branch2b"
  type: "Convolution"
  bottom: "res3b_branch2a"
  top: "res3b_branch2b"
  convolution_param {
    num_output: 128
    bias_term: false
    pad: 1
    kernel_size: 3
    stride: 1
    weight_filler {
      type: "xavier"
    }
  }
}
layer {
  name: "bn3b_branch2b"
  type: "BatchNorm"
  bottom: "res3b_branch2b"
  top: "res3b_branch2b"
  batch_norm_param {
    use_global_stats: false
  }
}
layer {
  name: "scale3b_branch2b"
  type: "Scale"
  bottom: "res3b_branch2b"
  top: "res3b_branch2b"
  scale_param {
    bias_term: true
  }
}
layer {
  name: "res3b"
  type: "Eltwise"
  bottom: "res3a"
  bottom: "res3b_branch2b"
  top: "res3b"
  eltwise_param {
    operation: SUM
  }
}
layer {
  name: "fc1"
  type: "InnerProduct"
  bottom: "res3b"
  top: "fc1"
  param {
    lr_mult: 1
    decay_mult: 1
  }
  param {
    lr_mult: 2
    decay_mult: 1
  }
  inner_product_param {
    num_output: 512
    weight_filler {
      type: "xavier"
    }
    bias_filler {
      type: "constant"
      value: 0
    }
  }
}
layer {
  name: "norm1"
  type: "Normalize"
  bottom: "fc1"
  top: "norm1"
}
layer {
  name: "fc2_l2"
  type: "InnerProduct"
  bottom: "norm1"
  top: "fc2"
  param {
    lr_mult: 1
  }
  inner_product_param {
    num_output: 10575
    bias_term: false
    weight_filler {
      type: "xavier"
    }
    normalize: true
  }
}
layer {
  name: "label_specific_margin"
  type: "LabelSpecificAdd"
  bottom: "fc2"
  bottom: "label"
  top: "fc2_margin"
  label_specific_add_param {
    bias: -0.35
  }
}
layer {
  name: "fc2_margin_scale"
  type: "Scale"
  bottom: "fc2_margin"
  top: "fc2_margin_scale"
  param {
    lr_mult: 0
    decay_mult: 0
  }
  scale_param {
    filler {
      type: "constant"
      value: 30
    }
  }
}
layer {
  name: "softmax_loss"
  type: "SoftmaxWithLoss"
  bottom: "fc2_margin_scale"
  bottom: "label"
  top: "softmax_loss"
  loss_weight: 1
}
I1201 01:55:36.367275  2928 layer_factory.hpp:77] Creating layer data
I1201 01:55:36.383816  2928 db_lmdb.cpp:40] Opened lmdb /home/user/NEST-3T/dataset/face_rec/CASIA-WebFace/lmdb/train_lmdb_no_balance
I1201 01:55:36.468636  2928 net.cpp:84] Creating Layer data
I1201 01:55:36.468677  2928 net.cpp:380] data -> data
I1201 01:55:36.468705  2928 net.cpp:380] data -> label
I1201 01:55:36.474472  2928 data_layer.cpp:45] output data size: 256,3,112,96
I1201 01:55:36.542382  2928 net.cpp:122] Setting up data
I1201 01:55:36.542412  2928 net.cpp:129] Top shape: 256 3 112 96 (8257536)
I1201 01:55:36.542416  2928 net.cpp:129] Top shape: 256 (256)
I1201 01:55:36.542419  2928 net.cpp:137] Memory required for data: 33031168
I1201 01:55:36.542428  2928 layer_factory.hpp:77] Creating layer label_data_1_split
I1201 01:55:36.542440  2928 net.cpp:84] Creating Layer label_data_1_split
I1201 01:55:36.542445  2928 net.cpp:406] label_data_1_split <- label
I1201 01:55:36.542457  2928 net.cpp:380] label_data_1_split -> label_data_1_split_0
I1201 01:55:36.542465  2928 net.cpp:380] label_data_1_split -> label_data_1_split_1
I1201 01:55:36.542641  2928 net.cpp:122] Setting up label_data_1_split
I1201 01:55:36.542678  2928 net.cpp:129] Top shape: 256 (256)
I1201 01:55:36.542688  2928 net.cpp:129] Top shape: 256 (256)
I1201 01:55:36.542695  2928 net.cpp:137] Memory required for data: 33033216
I1201 01:55:36.542704  2928 layer_factory.hpp:77] Creating layer conv1
I1201 01:55:36.542742  2928 net.cpp:84] Creating Layer conv1
I1201 01:55:36.542762  2928 net.cpp:406] conv1 <- data
I1201 01:55:36.542779  2928 net.cpp:380] conv1 -> conv1
I1201 01:55:37.504225  2928 net.cpp:122] Setting up conv1
I1201 01:55:37.504251  2928 net.cpp:129] Top shape: 256 128 56 48 (88080384)
I1201 01:55:37.504253  2928 net.cpp:137] Memory required for data: 385354752
I1201 01:55:37.504274  2928 layer_factory.hpp:77] Creating layer bn_conv1
I1201 01:55:37.504285  2928 net.cpp:84] Creating Layer bn_conv1
I1201 01:55:37.504288  2928 net.cpp:406] bn_conv1 <- conv1
I1201 01:55:37.504293  2928 net.cpp:367] bn_conv1 -> conv1 (in-place)
I1201 01:55:37.504431  2928 net.cpp:122] Setting up bn_conv1
I1201 01:55:37.504451  2928 net.cpp:129] Top shape: 256 128 56 48 (88080384)
I1201 01:55:37.504453  2928 net.cpp:137] Memory required for data: 737676288
I1201 01:55:37.504462  2928 layer_factory.hpp:77] Creating layer scale_conv1
I1201 01:55:37.504469  2928 net.cpp:84] Creating Layer scale_conv1
I1201 01:55:37.504472  2928 net.cpp:406] scale_conv1 <- conv1
I1201 01:55:37.504475  2928 net.cpp:367] scale_conv1 -> conv1 (in-place)
I1201 01:55:37.504506  2928 layer_factory.hpp:77] Creating layer scale_conv1
I1201 01:55:37.504583  2928 net.cpp:122] Setting up scale_conv1
I1201 01:55:37.504590  2928 net.cpp:129] Top shape: 256 128 56 48 (88080384)
I1201 01:55:37.504591  2928 net.cpp:137] Memory required for data: 1089997824
I1201 01:55:37.504597  2928 layer_factory.hpp:77] Creating layer conv1_relu
I1201 01:55:37.504602  2928 net.cpp:84] Creating Layer conv1_relu
I1201 01:55:37.504606  2928 net.cpp:406] conv1_relu <- conv1
I1201 01:55:37.504608  2928 net.cpp:367] conv1_relu -> conv1 (in-place)
I1201 01:55:37.504745  2928 net.cpp:122] Setting up conv1_relu
I1201 01:55:37.504752  2928 net.cpp:129] Top shape: 256 128 56 48 (88080384)
I1201 01:55:37.504755  2928 net.cpp:137] Memory required for data: 1442319360
I1201 01:55:37.504758  2928 layer_factory.hpp:77] Creating layer pool1
I1201 01:55:37.504765  2928 net.cpp:84] Creating Layer pool1
I1201 01:55:37.504766  2928 net.cpp:406] pool1 <- conv1
I1201 01:55:37.504770  2928 net.cpp:380] pool1 -> pool1
I1201 01:55:37.504804  2928 net.cpp:122] Setting up pool1
I1201 01:55:37.504809  2928 net.cpp:129] Top shape: 256 128 28 24 (22020096)
I1201 01:55:37.504812  2928 net.cpp:137] Memory required for data: 1530399744
I1201 01:55:37.504814  2928 layer_factory.hpp:77] Creating layer pool1_pool1_0_split
I1201 01:55:37.504819  2928 net.cpp:84] Creating Layer pool1_pool1_0_split
I1201 01:55:37.504822  2928 net.cpp:406] pool1_pool1_0_split <- pool1
I1201 01:55:37.504827  2928 net.cpp:380] pool1_pool1_0_split -> pool1_pool1_0_split_0
I1201 01:55:37.504832  2928 net.cpp:380] pool1_pool1_0_split -> pool1_pool1_0_split_1
I1201 01:55:37.504856  2928 net.cpp:122] Setting up pool1_pool1_0_split
I1201 01:55:37.504861  2928 net.cpp:129] Top shape: 256 128 28 24 (22020096)
I1201 01:55:37.504864  2928 net.cpp:129] Top shape: 256 128 28 24 (22020096)
I1201 01:55:37.504868  2928 net.cpp:137] Memory required for data: 1706560512
I1201 01:55:37.504869  2928 layer_factory.hpp:77] Creating layer res2a_branch1
I1201 01:55:37.504878  2928 net.cpp:84] Creating Layer res2a_branch1
I1201 01:55:37.504880  2928 net.cpp:406] res2a_branch1 <- pool1_pool1_0_split_0
I1201 01:55:37.504885  2928 net.cpp:380] res2a_branch1 -> res2a_branch1
I1201 01:55:37.506654  2928 net.cpp:122] Setting up res2a_branch1
I1201 01:55:37.506669  2928 net.cpp:129] Top shape: 256 64 28 24 (11010048)
I1201 01:55:37.506673  2928 net.cpp:137] Memory required for data: 1750600704
I1201 01:55:37.506680  2928 layer_factory.hpp:77] Creating layer bn2a_branch1
I1201 01:55:37.506688  2928 net.cpp:84] Creating Layer bn2a_branch1
I1201 01:55:37.506692  2928 net.cpp:406] bn2a_branch1 <- res2a_branch1
I1201 01:55:37.506698  2928 net.cpp:367] bn2a_branch1 -> res2a_branch1 (in-place)
I1201 01:55:37.508128  2928 net.cpp:122] Setting up bn2a_branch1
I1201 01:55:37.508141  2928 net.cpp:129] Top shape: 256 64 28 24 (11010048)
I1201 01:55:37.508143  2928 net.cpp:137] Memory required for data: 1794640896
I1201 01:55:37.508157  2928 layer_factory.hpp:77] Creating layer scale2a_branch1
I1201 01:55:37.508167  2928 net.cpp:84] Creating Layer scale2a_branch1
I1201 01:55:37.508170  2928 net.cpp:406] scale2a_branch1 <- res2a_branch1
I1201 01:55:37.508175  2928 net.cpp:367] scale2a_branch1 -> res2a_branch1 (in-place)
I1201 01:55:37.508209  2928 layer_factory.hpp:77] Creating layer scale2a_branch1
I1201 01:55:37.508296  2928 net.cpp:122] Setting up scale2a_branch1
I1201 01:55:37.508304  2928 net.cpp:129] Top shape: 256 64 28 24 (11010048)
I1201 01:55:37.508307  2928 net.cpp:137] Memory required for data: 1838681088
I1201 01:55:37.508314  2928 layer_factory.hpp:77] Creating layer res2a_branch2a
I1201 01:55:37.508337  2928 net.cpp:84] Creating Layer res2a_branch2a
I1201 01:55:37.508342  2928 net.cpp:406] res2a_branch2a <- pool1_pool1_0_split_1
I1201 01:55:37.508347  2928 net.cpp:380] res2a_branch2a -> res2a_branch2a
I1201 01:55:37.510411  2928 net.cpp:122] Setting up res2a_branch2a
I1201 01:55:37.510422  2928 net.cpp:129] Top shape: 256 64 28 24 (11010048)
I1201 01:55:37.510426  2928 net.cpp:137] Memory required for data: 1882721280
I1201 01:55:37.510432  2928 layer_factory.hpp:77] Creating layer bn2a_branch2a
I1201 01:55:37.510439  2928 net.cpp:84] Creating Layer bn2a_branch2a
I1201 01:55:37.510443  2928 net.cpp:406] bn2a_branch2a <- res2a_branch2a
I1201 01:55:37.510449  2928 net.cpp:367] bn2a_branch2a -> res2a_branch2a (in-place)
I1201 01:55:37.510588  2928 net.cpp:122] Setting up bn2a_branch2a
I1201 01:55:37.510596  2928 net.cpp:129] Top shape: 256 64 28 24 (11010048)
I1201 01:55:37.510598  2928 net.cpp:137] Memory required for data: 1926761472
I1201 01:55:37.510607  2928 layer_factory.hpp:77] Creating layer scale2a_branch2a
I1201 01:55:37.510614  2928 net.cpp:84] Creating Layer scale2a_branch2a
I1201 01:55:37.510618  2928 net.cpp:406] scale2a_branch2a <- res2a_branch2a
I1201 01:55:37.510623  2928 net.cpp:367] scale2a_branch2a -> res2a_branch2a (in-place)
I1201 01:55:37.510653  2928 layer_factory.hpp:77] Creating layer scale2a_branch2a
I1201 01:55:37.510735  2928 net.cpp:122] Setting up scale2a_branch2a
I1201 01:55:37.510741  2928 net.cpp:129] Top shape: 256 64 28 24 (11010048)
I1201 01:55:37.510746  2928 net.cpp:137] Memory required for data: 1970801664
I1201 01:55:37.510761  2928 layer_factory.hpp:77] Creating layer res2a_branch2a_relu
I1201 01:55:37.510768  2928 net.cpp:84] Creating Layer res2a_branch2a_relu
I1201 01:55:37.510773  2928 net.cpp:406] res2a_branch2a_relu <- res2a_branch2a
I1201 01:55:37.510779  2928 net.cpp:367] res2a_branch2a_relu -> res2a_branch2a (in-place)
I1201 01:55:37.510920  2928 net.cpp:122] Setting up res2a_branch2a_relu
I1201 01:55:37.510927  2928 net.cpp:129] Top shape: 256 64 28 24 (11010048)
I1201 01:55:37.510931  2928 net.cpp:137] Memory required for data: 2014841856
I1201 01:55:37.510933  2928 layer_factory.hpp:77] Creating layer res2a_branch2b
I1201 01:55:37.510942  2928 net.cpp:84] Creating Layer res2a_branch2b
I1201 01:55:37.510947  2928 net.cpp:406] res2a_branch2b <- res2a_branch2a
I1201 01:55:37.510953  2928 net.cpp:380] res2a_branch2b -> res2a_branch2b
I1201 01:55:37.512871  2928 net.cpp:122] Setting up res2a_branch2b
I1201 01:55:37.512882  2928 net.cpp:129] Top shape: 256 64 28 24 (11010048)
I1201 01:55:37.512886  2928 net.cpp:137] Memory required for data: 2058882048
I1201 01:55:37.512892  2928 layer_factory.hpp:77] Creating layer bn2a_branch2b
I1201 01:55:37.512900  2928 net.cpp:84] Creating Layer bn2a_branch2b
I1201 01:55:37.512904  2928 net.cpp:406] bn2a_branch2b <- res2a_branch2b
I1201 01:55:37.512910  2928 net.cpp:367] bn2a_branch2b -> res2a_branch2b (in-place)
I1201 01:55:37.513049  2928 net.cpp:122] Setting up bn2a_branch2b
I1201 01:55:37.513056  2928 net.cpp:129] Top shape: 256 64 28 24 (11010048)
I1201 01:55:37.513059  2928 net.cpp:137] Memory required for data: 2102922240
I1201 01:55:37.513067  2928 layer_factory.hpp:77] Creating layer scale2a_branch2b
I1201 01:55:37.513075  2928 net.cpp:84] Creating Layer scale2a_branch2b
I1201 01:55:37.513078  2928 net.cpp:406] scale2a_branch2b <- res2a_branch2b
I1201 01:55:37.513083  2928 net.cpp:367] scale2a_branch2b -> res2a_branch2b (in-place)
I1201 01:55:37.513111  2928 layer_factory.hpp:77] Creating layer scale2a_branch2b
I1201 01:55:37.513193  2928 net.cpp:122] Setting up scale2a_branch2b
I1201 01:55:37.513201  2928 net.cpp:129] Top shape: 256 64 28 24 (11010048)
I1201 01:55:37.513204  2928 net.cpp:137] Memory required for data: 2146962432
I1201 01:55:37.513211  2928 layer_factory.hpp:77] Creating layer res2a
I1201 01:55:37.513219  2928 net.cpp:84] Creating Layer res2a
I1201 01:55:37.513223  2928 net.cpp:406] res2a <- res2a_branch1
I1201 01:55:37.513228  2928 net.cpp:406] res2a <- res2a_branch2b
I1201 01:55:37.513243  2928 net.cpp:380] res2a -> res2a
I1201 01:55:37.513267  2928 net.cpp:122] Setting up res2a
I1201 01:55:37.513273  2928 net.cpp:129] Top shape: 256 64 28 24 (11010048)
I1201 01:55:37.513276  2928 net.cpp:137] Memory required for data: 2191002624
I1201 01:55:37.513280  2928 layer_factory.hpp:77] Creating layer res2a_relu
I1201 01:55:37.513286  2928 net.cpp:84] Creating Layer res2a_relu
I1201 01:55:37.513290  2928 net.cpp:406] res2a_relu <- res2a
I1201 01:55:37.513295  2928 net.cpp:367] res2a_relu -> res2a (in-place)
I1201 01:55:37.513700  2928 net.cpp:122] Setting up res2a_relu
I1201 01:55:37.513710  2928 net.cpp:129] Top shape: 256 64 28 24 (11010048)
I1201 01:55:37.513713  2928 net.cpp:137] Memory required for data: 2235042816
I1201 01:55:37.513717  2928 layer_factory.hpp:77] Creating layer res2a_res2a_relu_0_split
I1201 01:55:37.513725  2928 net.cpp:84] Creating Layer res2a_res2a_relu_0_split
I1201 01:55:37.513728  2928 net.cpp:406] res2a_res2a_relu_0_split <- res2a
I1201 01:55:37.513734  2928 net.cpp:380] res2a_res2a_relu_0_split -> res2a_res2a_relu_0_split_0
I1201 01:55:37.513743  2928 net.cpp:380] res2a_res2a_relu_0_split -> res2a_res2a_relu_0_split_1
I1201 01:55:37.513775  2928 net.cpp:122] Setting up res2a_res2a_relu_0_split
I1201 01:55:37.513782  2928 net.cpp:129] Top shape: 256 64 28 24 (11010048)
I1201 01:55:37.513787  2928 net.cpp:129] Top shape: 256 64 28 24 (11010048)
I1201 01:55:37.513790  2928 net.cpp:137] Memory required for data: 2323123200
I1201 01:55:37.513793  2928 layer_factory.hpp:77] Creating layer res2b_branch2a
I1201 01:55:37.513803  2928 net.cpp:84] Creating Layer res2b_branch2a
I1201 01:55:37.513808  2928 net.cpp:406] res2b_branch2a <- res2a_res2a_relu_0_split_0
I1201 01:55:37.513813  2928 net.cpp:380] res2b_branch2a -> res2b_branch2a
I1201 01:55:37.515348  2928 net.cpp:122] Setting up res2b_branch2a
I1201 01:55:37.515359  2928 net.cpp:129] Top shape: 256 64 28 24 (11010048)
I1201 01:55:37.515362  2928 net.cpp:137] Memory required for data: 2367163392
I1201 01:55:37.515368  2928 layer_factory.hpp:77] Creating layer bn2b_branch2a
I1201 01:55:37.515375  2928 net.cpp:84] Creating Layer bn2b_branch2a
I1201 01:55:37.515380  2928 net.cpp:406] bn2b_branch2a <- res2b_branch2a
I1201 01:55:37.515386  2928 net.cpp:367] bn2b_branch2a -> res2b_branch2a (in-place)
I1201 01:55:37.515524  2928 net.cpp:122] Setting up bn2b_branch2a
I1201 01:55:37.515532  2928 net.cpp:129] Top shape: 256 64 28 24 (11010048)
I1201 01:55:37.515535  2928 net.cpp:137] Memory required for data: 2411203584
I1201 01:55:37.515543  2928 layer_factory.hpp:77] Creating layer scale2b_branch2a
I1201 01:55:37.515550  2928 net.cpp:84] Creating Layer scale2b_branch2a
I1201 01:55:37.515555  2928 net.cpp:406] scale2b_branch2a <- res2b_branch2a
I1201 01:55:37.515560  2928 net.cpp:367] scale2b_branch2a -> res2b_branch2a (in-place)
I1201 01:55:37.515589  2928 layer_factory.hpp:77] Creating layer scale2b_branch2a
I1201 01:55:37.515673  2928 net.cpp:122] Setting up scale2b_branch2a
I1201 01:55:37.515682  2928 net.cpp:129] Top shape: 256 64 28 24 (11010048)
I1201 01:55:37.515686  2928 net.cpp:137] Memory required for data: 2455243776
I1201 01:55:37.515692  2928 layer_factory.hpp:77] Creating layer res2b_branch2a_relu
I1201 01:55:37.515699  2928 net.cpp:84] Creating Layer res2b_branch2a_relu
I1201 01:55:37.515704  2928 net.cpp:406] res2b_branch2a_relu <- res2b_branch2a
I1201 01:55:37.515710  2928 net.cpp:367] res2b_branch2a_relu -> res2b_branch2a (in-place)
I1201 01:55:37.515844  2928 net.cpp:122] Setting up res2b_branch2a_relu
I1201 01:55:37.515852  2928 net.cpp:129] Top shape: 256 64 28 24 (11010048)
I1201 01:55:37.515856  2928 net.cpp:137] Memory required for data: 2499283968
I1201 01:55:37.515859  2928 layer_factory.hpp:77] Creating layer res2b_branch2b
I1201 01:55:37.515868  2928 net.cpp:84] Creating Layer res2b_branch2b
I1201 01:55:37.515873  2928 net.cpp:406] res2b_branch2b <- res2b_branch2a
I1201 01:55:37.515878  2928 net.cpp:380] res2b_branch2b -> res2b_branch2b
I1201 01:55:37.517060  2928 net.cpp:122] Setting up res2b_branch2b
I1201 01:55:37.517078  2928 net.cpp:129] Top shape: 256 64 28 24 (11010048)
I1201 01:55:37.517082  2928 net.cpp:137] Memory required for data: 2543324160
I1201 01:55:37.517088  2928 layer_factory.hpp:77] Creating layer bn2b_branch2b
I1201 01:55:37.517096  2928 net.cpp:84] Creating Layer bn2b_branch2b
I1201 01:55:37.517100  2928 net.cpp:406] bn2b_branch2b <- res2b_branch2b
I1201 01:55:37.517105  2928 net.cpp:367] bn2b_branch2b -> res2b_branch2b (in-place)
I1201 01:55:37.517247  2928 net.cpp:122] Setting up bn2b_branch2b
I1201 01:55:37.517254  2928 net.cpp:129] Top shape: 256 64 28 24 (11010048)
I1201 01:55:37.517257  2928 net.cpp:137] Memory required for data: 2587364352
I1201 01:55:37.517268  2928 layer_factory.hpp:77] Creating layer scale2b_branch2b
I1201 01:55:37.517276  2928 net.cpp:84] Creating Layer scale2b_branch2b
I1201 01:55:37.517279  2928 net.cpp:406] scale2b_branch2b <- res2b_branch2b
I1201 01:55:37.517284  2928 net.cpp:367] scale2b_branch2b -> res2b_branch2b (in-place)
I1201 01:55:37.517313  2928 layer_factory.hpp:77] Creating layer scale2b_branch2b
I1201 01:55:37.517397  2928 net.cpp:122] Setting up scale2b_branch2b
I1201 01:55:37.517405  2928 net.cpp:129] Top shape: 256 64 28 24 (11010048)
I1201 01:55:37.517408  2928 net.cpp:137] Memory required for data: 2631404544
I1201 01:55:37.517415  2928 layer_factory.hpp:77] Creating layer res2b
I1201 01:55:37.517422  2928 net.cpp:84] Creating Layer res2b
I1201 01:55:37.517426  2928 net.cpp:406] res2b <- res2a_res2a_relu_0_split_1
I1201 01:55:37.517431  2928 net.cpp:406] res2b <- res2b_branch2b
I1201 01:55:37.517437  2928 net.cpp:380] res2b -> res2b
I1201 01:55:37.517458  2928 net.cpp:122] Setting up res2b
I1201 01:55:37.517465  2928 net.cpp:129] Top shape: 256 64 28 24 (11010048)
I1201 01:55:37.517469  2928 net.cpp:137] Memory required for data: 2675444736
I1201 01:55:37.517472  2928 layer_factory.hpp:77] Creating layer res2b_relu
I1201 01:55:37.517478  2928 net.cpp:84] Creating Layer res2b_relu
I1201 01:55:37.517482  2928 net.cpp:406] res2b_relu <- res2b
I1201 01:55:37.517487  2928 net.cpp:367] res2b_relu -> res2b (in-place)
I1201 01:55:37.517623  2928 net.cpp:122] Setting up res2b_relu
I1201 01:55:37.517632  2928 net.cpp:129] Top shape: 256 64 28 24 (11010048)
I1201 01:55:37.517634  2928 net.cpp:137] Memory required for data: 2719484928
I1201 01:55:37.517638  2928 layer_factory.hpp:77] Creating layer res2b_res2b_relu_0_split
I1201 01:55:37.517643  2928 net.cpp:84] Creating Layer res2b_res2b_relu_0_split
I1201 01:55:37.517648  2928 net.cpp:406] res2b_res2b_relu_0_split <- res2b
I1201 01:55:37.517654  2928 net.cpp:380] res2b_res2b_relu_0_split -> res2b_res2b_relu_0_split_0
I1201 01:55:37.517663  2928 net.cpp:380] res2b_res2b_relu_0_split -> res2b_res2b_relu_0_split_1
I1201 01:55:37.517694  2928 net.cpp:122] Setting up res2b_res2b_relu_0_split
I1201 01:55:37.517700  2928 net.cpp:129] Top shape: 256 64 28 24 (11010048)
I1201 01:55:37.517705  2928 net.cpp:129] Top shape: 256 64 28 24 (11010048)
I1201 01:55:37.517709  2928 net.cpp:137] Memory required for data: 2807565312
I1201 01:55:37.517712  2928 layer_factory.hpp:77] Creating layer res3a_branch1
I1201 01:55:37.517720  2928 net.cpp:84] Creating Layer res3a_branch1
I1201 01:55:37.517725  2928 net.cpp:406] res3a_branch1 <- res2b_res2b_relu_0_split_0
I1201 01:55:37.517731  2928 net.cpp:380] res3a_branch1 -> res3a_branch1
I1201 01:55:37.519520  2928 net.cpp:122] Setting up res3a_branch1
I1201 01:55:37.519531  2928 net.cpp:129] Top shape: 256 128 14 12 (5505024)
I1201 01:55:37.519536  2928 net.cpp:137] Memory required for data: 2829585408
I1201 01:55:37.519541  2928 layer_factory.hpp:77] Creating layer bn3a_branch1
I1201 01:55:37.519549  2928 net.cpp:84] Creating Layer bn3a_branch1
I1201 01:55:37.519556  2928 net.cpp:406] bn3a_branch1 <- res3a_branch1
I1201 01:55:37.519560  2928 net.cpp:367] bn3a_branch1 -> res3a_branch1 (in-place)
I1201 01:55:37.519695  2928 net.cpp:122] Setting up bn3a_branch1
I1201 01:55:37.519702  2928 net.cpp:129] Top shape: 256 128 14 12 (5505024)
I1201 01:55:37.519716  2928 net.cpp:137] Memory required for data: 2851605504
I1201 01:55:37.519723  2928 layer_factory.hpp:77] Creating layer scale3a_branch1
I1201 01:55:37.519731  2928 net.cpp:84] Creating Layer scale3a_branch1
I1201 01:55:37.519734  2928 net.cpp:406] scale3a_branch1 <- res3a_branch1
I1201 01:55:37.519739  2928 net.cpp:367] scale3a_branch1 -> res3a_branch1 (in-place)
I1201 01:55:37.519767  2928 layer_factory.hpp:77] Creating layer scale3a_branch1
I1201 01:55:37.519845  2928 net.cpp:122] Setting up scale3a_branch1
I1201 01:55:37.519851  2928 net.cpp:129] Top shape: 256 128 14 12 (5505024)
I1201 01:55:37.519855  2928 net.cpp:137] Memory required for data: 2873625600
I1201 01:55:37.519861  2928 layer_factory.hpp:77] Creating layer res3a_branch2a
I1201 01:55:37.519870  2928 net.cpp:84] Creating Layer res3a_branch2a
I1201 01:55:37.519876  2928 net.cpp:406] res3a_branch2a <- res2b_res2b_relu_0_split_1
I1201 01:55:37.519881  2928 net.cpp:380] res3a_branch2a -> res3a_branch2a
I1201 01:55:37.521631  2928 net.cpp:122] Setting up res3a_branch2a
I1201 01:55:37.521641  2928 net.cpp:129] Top shape: 256 128 14 12 (5505024)
I1201 01:55:37.521644  2928 net.cpp:137] Memory required for data: 2895645696
I1201 01:55:37.521651  2928 layer_factory.hpp:77] Creating layer bn3a_branch2a
I1201 01:55:37.521657  2928 net.cpp:84] Creating Layer bn3a_branch2a
I1201 01:55:37.521661  2928 net.cpp:406] bn3a_branch2a <- res3a_branch2a
I1201 01:55:37.521667  2928 net.cpp:367] bn3a_branch2a -> res3a_branch2a (in-place)
I1201 01:55:37.521800  2928 net.cpp:122] Setting up bn3a_branch2a
I1201 01:55:37.521806  2928 net.cpp:129] Top shape: 256 128 14 12 (5505024)
I1201 01:55:37.521809  2928 net.cpp:137] Memory required for data: 2917665792
I1201 01:55:37.521817  2928 layer_factory.hpp:77] Creating layer scale3a_branch2a
I1201 01:55:37.521826  2928 net.cpp:84] Creating Layer scale3a_branch2a
I1201 01:55:37.521828  2928 net.cpp:406] scale3a_branch2a <- res3a_branch2a
I1201 01:55:37.521833  2928 net.cpp:367] scale3a_branch2a -> res3a_branch2a (in-place)
I1201 01:55:37.521863  2928 layer_factory.hpp:77] Creating layer scale3a_branch2a
I1201 01:55:37.521942  2928 net.cpp:122] Setting up scale3a_branch2a
I1201 01:55:37.521950  2928 net.cpp:129] Top shape: 256 128 14 12 (5505024)
I1201 01:55:37.521953  2928 net.cpp:137] Memory required for data: 2939685888
I1201 01:55:37.521960  2928 layer_factory.hpp:77] Creating layer res3a_branch2a_relu
I1201 01:55:37.521966  2928 net.cpp:84] Creating Layer res3a_branch2a_relu
I1201 01:55:37.521970  2928 net.cpp:406] res3a_branch2a_relu <- res3a_branch2a
I1201 01:55:37.521975  2928 net.cpp:367] res3a_branch2a_relu -> res3a_branch2a (in-place)
I1201 01:55:37.522562  2928 net.cpp:122] Setting up res3a_branch2a_relu
I1201 01:55:37.522572  2928 net.cpp:129] Top shape: 256 128 14 12 (5505024)
I1201 01:55:37.522577  2928 net.cpp:137] Memory required for data: 2961705984
I1201 01:55:37.522579  2928 layer_factory.hpp:77] Creating layer res3a_branch2b
I1201 01:55:37.522588  2928 net.cpp:84] Creating Layer res3a_branch2b
I1201 01:55:37.522593  2928 net.cpp:406] res3a_branch2b <- res3a_branch2a
I1201 01:55:37.522600  2928 net.cpp:380] res3a_branch2b -> res3a_branch2b
I1201 01:55:37.524253  2928 net.cpp:122] Setting up res3a_branch2b
I1201 01:55:37.524264  2928 net.cpp:129] Top shape: 256 128 14 12 (5505024)
I1201 01:55:37.524268  2928 net.cpp:137] Memory required for data: 2983726080
I1201 01:55:37.524273  2928 layer_factory.hpp:77] Creating layer bn3a_branch2b
I1201 01:55:37.524281  2928 net.cpp:84] Creating Layer bn3a_branch2b
I1201 01:55:37.524286  2928 net.cpp:406] bn3a_branch2b <- res3a_branch2b
I1201 01:55:37.524292  2928 net.cpp:367] bn3a_branch2b -> res3a_branch2b (in-place)
I1201 01:55:37.524430  2928 net.cpp:122] Setting up bn3a_branch2b
I1201 01:55:37.524436  2928 net.cpp:129] Top shape: 256 128 14 12 (5505024)
I1201 01:55:37.524439  2928 net.cpp:137] Memory required for data: 3005746176
I1201 01:55:37.524448  2928 layer_factory.hpp:77] Creating layer scale3a_branch2b
I1201 01:55:37.524456  2928 net.cpp:84] Creating Layer scale3a_branch2b
I1201 01:55:37.524466  2928 net.cpp:406] scale3a_branch2b <- res3a_branch2b
I1201 01:55:37.524472  2928 net.cpp:367] scale3a_branch2b -> res3a_branch2b (in-place)
I1201 01:55:37.524502  2928 layer_factory.hpp:77] Creating layer scale3a_branch2b
I1201 01:55:37.524580  2928 net.cpp:122] Setting up scale3a_branch2b
I1201 01:55:37.524586  2928 net.cpp:129] Top shape: 256 128 14 12 (5505024)
I1201 01:55:37.524590  2928 net.cpp:137] Memory required for data: 3027766272
I1201 01:55:37.524596  2928 layer_factory.hpp:77] Creating layer res3a
I1201 01:55:37.524602  2928 net.cpp:84] Creating Layer res3a
I1201 01:55:37.524607  2928 net.cpp:406] res3a <- res3a_branch1
I1201 01:55:37.524611  2928 net.cpp:406] res3a <- res3a_branch2b
I1201 01:55:37.524617  2928 net.cpp:380] res3a -> res3a
I1201 01:55:37.524634  2928 net.cpp:122] Setting up res3a
I1201 01:55:37.524641  2928 net.cpp:129] Top shape: 256 128 14 12 (5505024)
I1201 01:55:37.524643  2928 net.cpp:137] Memory required for data: 3049786368
I1201 01:55:37.524646  2928 layer_factory.hpp:77] Creating layer res3a_relu
I1201 01:55:37.524652  2928 net.cpp:84] Creating Layer res3a_relu
I1201 01:55:37.524655  2928 net.cpp:406] res3a_relu <- res3a
I1201 01:55:37.524660  2928 net.cpp:367] res3a_relu -> res3a (in-place)
I1201 01:55:37.524798  2928 net.cpp:122] Setting up res3a_relu
I1201 01:55:37.524806  2928 net.cpp:129] Top shape: 256 128 14 12 (5505024)
I1201 01:55:37.524809  2928 net.cpp:137] Memory required for data: 3071806464
I1201 01:55:37.524813  2928 layer_factory.hpp:77] Creating layer res3a_res3a_relu_0_split
I1201 01:55:37.524819  2928 net.cpp:84] Creating Layer res3a_res3a_relu_0_split
I1201 01:55:37.524823  2928 net.cpp:406] res3a_res3a_relu_0_split <- res3a
I1201 01:55:37.524828  2928 net.cpp:380] res3a_res3a_relu_0_split -> res3a_res3a_relu_0_split_0
I1201 01:55:37.524837  2928 net.cpp:380] res3a_res3a_relu_0_split -> res3a_res3a_relu_0_split_1
I1201 01:55:37.524869  2928 net.cpp:122] Setting up res3a_res3a_relu_0_split
I1201 01:55:37.524876  2928 net.cpp:129] Top shape: 256 128 14 12 (5505024)
I1201 01:55:37.524880  2928 net.cpp:129] Top shape: 256 128 14 12 (5505024)
I1201 01:55:37.524883  2928 net.cpp:137] Memory required for data: 3115846656
I1201 01:55:37.524886  2928 layer_factory.hpp:77] Creating layer res3b_branch2a
I1201 01:55:37.524894  2928 net.cpp:84] Creating Layer res3b_branch2a
I1201 01:55:37.524899  2928 net.cpp:406] res3b_branch2a <- res3a_res3a_relu_0_split_0
I1201 01:55:37.524905  2928 net.cpp:380] res3b_branch2a -> res3b_branch2a
I1201 01:55:37.527768  2928 net.cpp:122] Setting up res3b_branch2a
I1201 01:55:37.527779  2928 net.cpp:129] Top shape: 256 128 14 12 (5505024)
I1201 01:55:37.527782  2928 net.cpp:137] Memory required for data: 3137866752
I1201 01:55:37.527789  2928 layer_factory.hpp:77] Creating layer bn3b_branch2a
I1201 01:55:37.527796  2928 net.cpp:84] Creating Layer bn3b_branch2a
I1201 01:55:37.527799  2928 net.cpp:406] bn3b_branch2a <- res3b_branch2a
I1201 01:55:37.527804  2928 net.cpp:367] bn3b_branch2a -> res3b_branch2a (in-place)
I1201 01:55:37.527941  2928 net.cpp:122] Setting up bn3b_branch2a
I1201 01:55:37.527948  2928 net.cpp:129] Top shape: 256 128 14 12 (5505024)
I1201 01:55:37.527951  2928 net.cpp:137] Memory required for data: 3159886848
I1201 01:55:37.527959  2928 layer_factory.hpp:77] Creating layer scale3b_branch2a
I1201 01:55:37.527966  2928 net.cpp:84] Creating Layer scale3b_branch2a
I1201 01:55:37.527971  2928 net.cpp:406] scale3b_branch2a <- res3b_branch2a
I1201 01:55:37.527976  2928 net.cpp:367] scale3b_branch2a -> res3b_branch2a (in-place)
I1201 01:55:37.528004  2928 layer_factory.hpp:77] Creating layer scale3b_branch2a
I1201 01:55:37.528084  2928 net.cpp:122] Setting up scale3b_branch2a
I1201 01:55:37.528090  2928 net.cpp:129] Top shape: 256 128 14 12 (5505024)
I1201 01:55:37.528095  2928 net.cpp:137] Memory required for data: 3181906944
I1201 01:55:37.528100  2928 layer_factory.hpp:77] Creating layer res3b_branch2a_relu
I1201 01:55:37.528106  2928 net.cpp:84] Creating Layer res3b_branch2a_relu
I1201 01:55:37.528118  2928 net.cpp:406] res3b_branch2a_relu <- res3b_branch2a
I1201 01:55:37.528125  2928 net.cpp:367] res3b_branch2a_relu -> res3b_branch2a (in-place)
I1201 01:55:37.528267  2928 net.cpp:122] Setting up res3b_branch2a_relu
I1201 01:55:37.528276  2928 net.cpp:129] Top shape: 256 128 14 12 (5505024)
I1201 01:55:37.528280  2928 net.cpp:137] Memory required for data: 3203927040
I1201 01:55:37.528283  2928 layer_factory.hpp:77] Creating layer res3b_branch2b
I1201 01:55:37.528291  2928 net.cpp:84] Creating Layer res3b_branch2b
I1201 01:55:37.528296  2928 net.cpp:406] res3b_branch2b <- res3b_branch2a
I1201 01:55:37.528302  2928 net.cpp:380] res3b_branch2b -> res3b_branch2b
I1201 01:55:37.530702  2928 net.cpp:122] Setting up res3b_branch2b
I1201 01:55:37.530714  2928 net.cpp:129] Top shape: 256 128 14 12 (5505024)
I1201 01:55:37.530719  2928 net.cpp:137] Memory required for data: 3225947136
I1201 01:55:37.530725  2928 layer_factory.hpp:77] Creating layer bn3b_branch2b
I1201 01:55:37.530731  2928 net.cpp:84] Creating Layer bn3b_branch2b
I1201 01:55:37.530736  2928 net.cpp:406] bn3b_branch2b <- res3b_branch2b
I1201 01:55:37.530742  2928 net.cpp:367] bn3b_branch2b -> res3b_branch2b (in-place)
I1201 01:55:37.530894  2928 net.cpp:122] Setting up bn3b_branch2b
I1201 01:55:37.530901  2928 net.cpp:129] Top shape: 256 128 14 12 (5505024)
I1201 01:55:37.530905  2928 net.cpp:137] Memory required for data: 3247967232
I1201 01:55:37.530912  2928 layer_factory.hpp:77] Creating layer scale3b_branch2b
I1201 01:55:37.530920  2928 net.cpp:84] Creating Layer scale3b_branch2b
I1201 01:55:37.530925  2928 net.cpp:406] scale3b_branch2b <- res3b_branch2b
I1201 01:55:37.530930  2928 net.cpp:367] scale3b_branch2b -> res3b_branch2b (in-place)
I1201 01:55:37.530957  2928 layer_factory.hpp:77] Creating layer scale3b_branch2b
I1201 01:55:37.531034  2928 net.cpp:122] Setting up scale3b_branch2b
I1201 01:55:37.531042  2928 net.cpp:129] Top shape: 256 128 14 12 (5505024)
I1201 01:55:37.531045  2928 net.cpp:137] Memory required for data: 3269987328
I1201 01:55:37.531059  2928 layer_factory.hpp:77] Creating layer res3b
I1201 01:55:37.531066  2928 net.cpp:84] Creating Layer res3b
I1201 01:55:37.531071  2928 net.cpp:406] res3b <- res3a_res3a_relu_0_split_1
I1201 01:55:37.531076  2928 net.cpp:406] res3b <- res3b_branch2b
I1201 01:55:37.531081  2928 net.cpp:380] res3b -> res3b
I1201 01:55:37.531101  2928 net.cpp:122] Setting up res3b
I1201 01:55:37.531108  2928 net.cpp:129] Top shape: 256 128 14 12 (5505024)
I1201 01:55:37.531111  2928 net.cpp:137] Memory required for data: 3292007424
I1201 01:55:37.531114  2928 layer_factory.hpp:77] Creating layer fc1
I1201 01:55:37.531122  2928 net.cpp:84] Creating Layer fc1
I1201 01:55:37.531127  2928 net.cpp:406] fc1 <- res3b
I1201 01:55:37.531134  2928 net.cpp:380] fc1 -> fc1
I1201 01:55:37.587615  2928 net.cpp:122] Setting up fc1
I1201 01:55:37.587656  2928 net.cpp:129] Top shape: 256 512 (131072)
I1201 01:55:37.587659  2928 net.cpp:137] Memory required for data: 3292531712
I1201 01:55:37.587676  2928 layer_factory.hpp:77] Creating layer norm1
I1201 01:55:37.587692  2928 net.cpp:84] Creating Layer norm1
I1201 01:55:37.587697  2928 net.cpp:406] norm1 <- fc1
I1201 01:55:37.587707  2928 net.cpp:380] norm1 -> norm1
I1201 01:55:37.587757  2928 net.cpp:122] Setting up norm1
I1201 01:55:37.587764  2928 net.cpp:129] Top shape: 256 512 1 1 (131072)
I1201 01:55:37.587769  2928 net.cpp:137] Memory required for data: 3293056000
I1201 01:55:37.587771  2928 layer_factory.hpp:77] Creating layer fc2_l2
I1201 01:55:37.587779  2928 net.cpp:84] Creating Layer fc2_l2
I1201 01:55:37.587783  2928 net.cpp:406] fc2_l2 <- norm1
I1201 01:55:37.587790  2928 net.cpp:380] fc2_l2 -> fc2
I1201 01:55:37.614617  2928 net.cpp:122] Setting up fc2_l2
I1201 01:55:37.614661  2928 net.cpp:129] Top shape: 256 10575 (2707200)
I1201 01:55:37.614666  2928 net.cpp:137] Memory required for data: 3303884800
I1201 01:55:37.614679  2928 layer_factory.hpp:77] Creating layer label_specific_margin
I1201 01:55:37.614698  2928 net.cpp:84] Creating Layer label_specific_margin
I1201 01:55:37.614725  2928 net.cpp:406] label_specific_margin <- fc2
I1201 01:55:37.614732  2928 net.cpp:406] label_specific_margin <- label_data_1_split_0
I1201 01:55:37.614740  2928 net.cpp:380] label_specific_margin -> fc2_margin
I1201 01:55:37.614785  2928 net.cpp:122] Setting up label_specific_margin
I1201 01:55:37.614794  2928 net.cpp:129] Top shape: 256 10575 (2707200)
I1201 01:55:37.614797  2928 net.cpp:137] Memory required for data: 3314713600
I1201 01:55:37.614801  2928 layer_factory.hpp:77] Creating layer fc2_margin_scale
I1201 01:55:37.614811  2928 net.cpp:84] Creating Layer fc2_margin_scale
I1201 01:55:37.614816  2928 net.cpp:406] fc2_margin_scale <- fc2_margin
I1201 01:55:37.614822  2928 net.cpp:380] fc2_margin_scale -> fc2_margin_scale
I1201 01:55:37.614910  2928 net.cpp:122] Setting up fc2_margin_scale
I1201 01:55:37.614918  2928 net.cpp:129] Top shape: 256 10575 (2707200)
I1201 01:55:37.614922  2928 net.cpp:137] Memory required for data: 3325542400
I1201 01:55:37.614928  2928 layer_factory.hpp:77] Creating layer softmax_loss
I1201 01:55:37.614934  2928 net.cpp:84] Creating Layer softmax_loss
I1201 01:55:37.614939  2928 net.cpp:406] softmax_loss <- fc2_margin_scale
I1201 01:55:37.614944  2928 net.cpp:406] softmax_loss <- label_data_1_split_1
I1201 01:55:37.614953  2928 net.cpp:380] softmax_loss -> softmax_loss
…
I1201 01:55:37.621897  2928 net.cpp:294] The NetState phase (1) differed from the phase (0) specified by a rule in layer data
I1201 01:55:37.622139  2928 net.cpp:51] Initializing net from parameters: 
name: "ResNet-11"
state {
  phase: TEST
}
layer {
  name: "data"
  type: "Data"
  top: "data"
  top: "label"
  include {
    phase: TEST
  }
  transform_param {
    scale: 0.0078125
    mirror: true
    mean_value: 128
  }
  data_param {
    source: "/home/user/NEST-3T/dataset/face_rec/CASIA-WebFace/lmdb/valid_lmdb_no_balance"
    batch_size: 128
    backend: LMDB
  }
}
layer {
  name: "conv1"
  type: "Convolution"
  bottom: "data"
  top: "conv1"
  convolution_param {
    num_output: 128
    bias_term: false
    pad: 1
    kernel_size: 3
    stride: 2
    weight_filler {
      type: "xavier"
    }
  }
}
layer {
  name: "bn_conv1"
  type: "BatchNorm"
  bottom: "conv1"
  top: "conv1"
  batch_norm_param {
    use_global_stats: false
  }
}
layer {
  name: "scale_conv1"
  type: "Scale"
  bottom: "conv1"
  top: "conv1"
  scale_param {
    bias_term: true
  }
}
layer {
  name: "conv1_relu"
  type: "ReLU"
  bottom: "conv1"
  top: "conv1"
}
layer {
  name: "pool1"
  type: "Pooling"
  bottom: "conv1"
  top: "pool1"
  pooling_param {
    pool: MAX
    kernel_size: 3
    stride: 2
  }
}
layer {
  name: "res2a_branch1"
  type: "Convolution"
  bottom: "pool1"
  top: "res2a_branch1"
  convolution_param {
    num_output: 64
    bias_term: false
    pad: 0
    kernel_size: 1
    stride: 1
    weight_filler {
      type: "xavier"
    }
  }
}
layer {
  name: "bn2a_branch1"
  type: "BatchNorm"
  bottom: "res2a_branch1"
  top: "res2a_branch1"
  batch_norm_param {
    use_global_stats: false
  }
}
layer {
  name: "scale2a_branch1"
  type: "Scale"
  bottom: "res2a_branch1"
  top: "res2a_branch1"
  scale_param {
    bias_term: true
  }
}
layer {
  name: "res2a_branch2a"
  type: "Convolution"
  bottom: "pool1"
  top: "res2a_branch2a"
  convolution_param {
    num_output: 64
    bias_term: false
    pad: 1
    kernel_size: 3
    stride: 1
    weight_filler {
      type: "xavier"
    }
  }
}
layer {
  name: "bn2a_branch2a"
  type: "BatchNorm"
  bottom: "res2a_branch2a"
  top: "res2a_branch2a"
  batch_norm_param {
    use_global_stats: false
  }
}
layer {
  name: "scale2a_branch2a"
  type: "Scale"
  bottom: "res2a_branch2a"
  top: "res2a_branch2a"
  scale_param {
    bias_term: true
  }
}
layer {
  name: "res2a_branch2a_relu"
  type: "ReLU"
  bottom: "res2a_branch2a"
  top: "res2a_branch2a"
}
layer {
  name: "res2a_branch2b"
  type: "Convolution"
  bottom: "res2a_branch2a"
  top: "res2a_branch2b"
  convolution_param {
    num_output: 64
    bias_term: false
    pad: 1
    kernel_size: 3
    stride: 1
    weight_filler {
      type: "xavier"
    }
  }
}
layer {
  name: "bn2a_branch2b"
  type: "BatchNorm"
  bottom: "res2a_branch2b"
  top: "res2a_branch2b"
  batch_norm_param {
    use_global_stats: false
  }
}
layer {
  name: "scale2a_branch2b"
  type: "Scale"
  bottom: "res2a_branch2b"
  top: "res2a_branch2b"
  scale_param {
    bias_term: true
  }
}
layer {
  name: "res2a"
  type: "Eltwise"
  bottom: "res2a_branch1"
  bottom: "res2a_branch2b"
  top: "res2a"
  eltwise_param {
    operation: SUM
  }
}
layer {
  name: "res2a_relu"
  type: "ReLU"
  bottom: "res2a"
  top: "res2a"
}
layer {
  name: "res2b_branch2a"
  type: "Convolution"
  bottom: "res2a"
  top: "res2b_branch2a"
  convolution_param {
    num_output: 64
    bias_term: false
    pad: 1
    kernel_size: 3
    stride: 1
    weight_filler {
      type: "xavier"
    }
  }
}
layer {
  name: "bn2b_branch2a"
  type: "BatchNorm"
  bottom: "res2b_branch2a"
  top: "res2b_branch2a"
  batch_norm_param {
    use_global_stats: false
  }
}
layer {
  name: "scale2b_branch2a"
  type: "Scale"
  bottom: "res2b_branch2a"
  top: "res2b_branch2a"
  scale_param {
    bias_term: true
  }
}
layer {
  name: "res2b_branch2a_relu"
  type: "ReLU"
  bottom: "res2b_branch2a"
  top: "res2b_branch2a"
}
layer {
  name: "res2b_branch2b"
  type: "Convolution"
  bottom: "res2b_branch2a"
  top: "res2b_branch2b"
  convolution_param {
    num_output: 64
    bias_term: false
    pad: 1
    kernel_size: 3
    stride: 1
    weight_filler {
      type: "xavier"
    }
  }
}
layer {
  name: "bn2b_branch2b"
  type: "BatchNorm"
  bottom: "res2b_branch2b"
  top: "res2b_branch2b"
  batch_norm_param {
    use_global_stats: false
  }
}
layer {
  name: "scale2b_branch2b"
  type: "Scale"
  bottom: "res2b_branch2b"
  top: "res2b_branch2b"
  scale_param {
    bias_term: true
  }
}
layer {
  name: "res2b"
  type: "Eltwise"
  bottom: "res2a"
  bottom: "res2b_branch2b"
  top: "res2b"
  eltwise_param {
    operation: SUM
  }
}
layer {
  name: "res2b_relu"
  type: "ReLU"
  bottom: "res2b"
  top: "res2b"
}
layer {
  name: "res3a_branch1"
  type: "Convolution"
  bottom: "res2b"
  top: "res3a_branch1"
  convolution_param {
    num_output: 128
    bias_term: false
    pad: 0
    kernel_size: 1
    stride: 2
    weight_filler {
      type: "xavier"
    }
  }
}
layer {
  name: "bn3a_branch1"
  type: "BatchNorm"
  bottom: "res3a_branch1"
  top: "res3a_branch1"
  batch_norm_param {
    use_global_stats: false
  }
}
layer {
  name: "scale3a_branch1"
  type: "Scale"
  bottom: "res3a_branch1"
  top: "res3a_branch1"
  scale_param {
    bias_term: true
  }
}
layer {
  name: "res3a_branch2a"
  type: "Convolution"
  bottom: "res2b"
  top: "res3a_branch2a"
  convolution_param {
    num_output: 128
    bias_term: false
    pad: 1
    kernel_size: 3
    stride: 2
    weight_filler {
      type: "xavier"
    }
  }
}
layer {
  name: "bn3a_branch2a"
  type: "BatchNorm"
  bottom: "res3a_branch2a"
  top: "res3a_branch2a"
  batch_norm_param {
    use_global_stats: false
  }
}
layer {
  name: "scale3a_branch2a"
  type: "Scale"
  bottom: "res3a_branch2a"
  top: "res3a_branch2a"
  scale_param {
    bias_term: true
  }
}
layer {
  name: "res3a_branch2a_relu"
  type: "ReLU"
  bottom: "res3a_branch2a"
  top: "res3a_branch2a"
}
layer {
  name: "res3a_branch2b"
  type: "Convolution"
  bottom: "res3a_branch2a"
  top: "res3a_branch2b"
  convolution_param {
    num_output: 128
    bias_term: false
    pad: 1
    kernel_size: 3
    stride: 1
    weight_filler {
      type: "xavier"
    }
  }
}
layer {
  name: "bn3a_branch2b"
  type: "BatchNorm"
  bottom: "res3a_branch2b"
  top: "res3a_branch2b"
  batch_norm_param {
    use_global_stats: false
  }
}
layer {
  name: "scale3a_branch2b"
  type: "Scale"
  bottom: "res3a_branch2b"
  top: "res3a_branch2b"
  scale_param {
    bias_term: true
  }
}
layer {
  name: "res3a"
  type: "Eltwise"
  bottom: "res3a_branch1"
  bottom: "res3a_branch2b"
  top: "res3a"
  eltwise_param {
    operation: SUM
  }
}
layer {
  name: "res3a_relu"
  type: "ReLU"
  bottom: "res3a"
  top: "res3a"
}
layer {
  name: "res3b_branch2a"
  type: "Convolution"
  bottom: "res3a"
  top: "res3b_branch2a"
  convolution_param {
    num_output: 128
    bias_term: false
    pad: 1
    kernel_size: 3
    stride: 1
    weight_filler {
      type: "xavier"
    }
  }
}
layer {
  name: "bn3b_branch2a"
  type: "BatchNorm"
  bottom: "res3b_branch2a"
  top: "res3b_branch2a"
  batch_norm_param {
    use_global_stats: false
  }
}
layer {
  name: "scale3b_branch2a"
  type: "Scale"
  bottom: "res3b_branch2a"
  top: "res3b_branch2a"
  scale_param {
    bias_term: true
  }
}
layer {
  name: "res3b_branch2a_relu"
  type: "ReLU"
  bottom: "res3b_branch2a"
  top: "res3b_branch2a"
}
layer {
  name: "res3b_branch2b"
  type: "Convolution"
  bottom: "res3b_branch2a"
  top: "res3b_branch2b"
  convolution_param {
    num_output: 128
    bias_term: false
    pad: 1
    kernel_size: 3
    stride: 1
    weight_filler {
      type: "xavier"
    }
  }
}
layer {
  name: "bn3b_branch2b"
  type: "BatchNorm"
  bottom: "res3b_branch2b"
  top: "res3b_branch2b"
  batch_norm_param {
    use_global_stats: false
  }
}
layer {
  name: "scale3b_branch2b"
  type: "Scale"
  bottom: "res3b_branch2b"
  top: "res3b_branch2b"
  scale_param {
    bias_term: true
  }
}
layer {
  name: "res3b"
  type: "Eltwise"
  bottom: "res3a"
  bottom: "res3b_branch2b"
  top: "res3b"
  eltwise_param {
    operation: SUM
  }
}
layer {
  name: "fc1"
  type: "InnerProduct"
  bottom: "res3b"
  top: "fc1"
  param {
    lr_mult: 1
    decay_mult: 1
  }
  param {
    lr_mult: 2
    decay_mult: 1
  }
  inner_product_param {
    num_output: 512
    weight_filler {
      type: "xavier"
    }
    bias_filler {
      type: "constant"
      value: 0
    }
  }
}
layer {
  name: "norm1"
  type: "Normalize"
  bottom: "fc1"
  top: "norm1"
}
layer {
  name: "fc2_l2"
  type: "InnerProduct"
  bottom: "norm1"
  top: "fc2"
  param {
    lr_mult: 1
  }
  inner_product_param {
    num_output: 10575
    bias_term: false
    weight_filler {
      type: "xavier"
    }
    normalize: true
  }
}
layer {
  name: "label_specific_margin"
  type: "LabelSpecificAdd"
  bottom: "fc2"
  bottom: "label"
  top: "fc2_margin"
  label_specific_add_param {
    bias: -0.35
  }
}
layer {
  name: "fc2_margin_scale"
  type: "Scale"
  bottom: "fc2_margin"
  top: "fc2_margin_scale"
  param {
    lr_mult: 0
    decay_mult: 0
  }
  scale_param {
    filler {
      type: "constant"
      value: 30
    }
  }
}
layer {
  name: "softmax_loss"
  type: "SoftmaxWithLoss"
  bottom: "fc2_margin_scale"
  bottom: "label"
  top: "softmax_loss"
  loss_weight: 1
}
layer {
  name: "Accuracy"
  type: "Accuracy"
  bottom: "fc2"
  bottom: "label"
  top: "accuracy"
  include {
    phase: TEST
  }
}
I1201 01:55:37.622361  2928 layer_factory.hpp:77] Creating layer data
I1201 01:55:37.633466  2928 db_lmdb.cpp:40] Opened lmdb /home/user/NEST-3T/dataset/face_rec/CASIA-WebFace/lmdb/valid_lmdb_no_balance
I1201 01:55:37.676843  2928 net.cpp:84] Creating Layer data
I1201 01:55:37.676895  2928 net.cpp:380] data -> data
I1201 01:55:37.676928  2928 net.cpp:380] data -> label
I1201 01:55:37.677423  2928 data_layer.cpp:45] output data size: 128,3,112,96
I1201 01:55:37.712833  2928 net.cpp:122] Setting up data
I1201 01:55:37.712862  2928 net.cpp:129] Top shape: 128 3 112 96 (4128768)
I1201 01:55:37.712867  2928 net.cpp:129] Top shape: 128 (128)
I1201 01:55:37.712870  2928 net.cpp:137] Memory required for data: 16515584
I1201 01:55:37.712877  2928 layer_factory.hpp:77] Creating layer label_data_1_split
I1201 01:55:37.712895  2928 net.cpp:84] Creating Layer label_data_1_split
I1201 01:55:37.712901  2928 net.cpp:406] label_data_1_split <- label
I1201 01:55:37.712910  2928 net.cpp:380] label_data_1_split -> label_data_1_split_0
I1201 01:55:37.712924  2928 net.cpp:380] label_data_1_split -> label_data_1_split_1
I1201 01:55:37.712932  2928 net.cpp:380] label_data_1_split -> label_data_1_split_2
I1201 01:55:37.713003  2928 net.cpp:122] Setting up label_data_1_split
I1201 01:55:37.713011  2928 net.cpp:129] Top shape: 128 (128)
I1201 01:55:37.713016  2928 net.cpp:129] Top shape: 128 (128)
I1201 01:55:37.713019  2928 net.cpp:129] Top shape: 128 (128)
I1201 01:55:37.713022  2928 net.cpp:137] Memory required for data: 16517120
I1201 01:55:37.713027  2928 layer_factory.hpp:77] Creating layer conv1
I1201 01:55:37.713038  2928 net.cpp:84] Creating Layer conv1
I1201 01:55:37.713043  2928 net.cpp:406] conv1 <- data
I1201 01:55:37.713049  2928 net.cpp:380] conv1 -> conv1
I1201 01:55:37.714015  2928 net.cpp:122] Setting up conv1
I1201 01:55:37.714025  2928 net.cpp:129] Top shape: 128 128 56 48 (44040192)
I1201 01:55:37.714028  2928 net.cpp:137] Memory required for data: 192677888
I1201 01:55:37.714037  2928 layer_factory.hpp:77] Creating layer bn_conv1
I1201 01:55:37.714046  2928 net.cpp:84] Creating Layer bn_conv1
I1201 01:55:37.714051  2928 net.cpp:406] bn_conv1 <- conv1
I1201 01:55:37.714056  2928 net.cpp:367] bn_conv1 -> conv1 (in-place)
I1201 01:55:37.714195  2928 net.cpp:122] Setting up bn_conv1
I1201 01:55:37.714203  2928 net.cpp:129] Top shape: 128 128 56 48 (44040192)
I1201 01:55:37.714206  2928 net.cpp:137] Memory required for data: 368838656
I1201 01:55:37.714216  2928 layer_factory.hpp:77] Creating layer scale_conv1
I1201 01:55:37.714224  2928 net.cpp:84] Creating Layer scale_conv1
I1201 01:55:37.714228  2928 net.cpp:406] scale_conv1 <- conv1
I1201 01:55:37.714233  2928 net.cpp:367] scale_conv1 -> conv1 (in-place)
I1201 01:55:37.714267  2928 layer_factory.hpp:77] Creating layer scale_conv1
I1201 01:55:37.714346  2928 net.cpp:122] Setting up scale_conv1
I1201 01:55:37.714352  2928 net.cpp:129] Top shape: 128 128 56 48 (44040192)
I1201 01:55:37.714355  2928 net.cpp:137] Memory required for data: 544999424
I1201 01:55:37.714375  2928 layer_factory.hpp:77] Creating layer conv1_relu
I1201 01:55:37.714382  2928 net.cpp:84] Creating Layer conv1_relu
I1201 01:55:37.714385  2928 net.cpp:406] conv1_relu <- conv1
I1201 01:55:37.714391  2928 net.cpp:367] conv1_relu -> conv1 (in-place)
I1201 01:55:37.714838  2928 net.cpp:122] Setting up conv1_relu
I1201 01:55:37.714848  2928 net.cpp:129] Top shape: 128 128 56 48 (44040192)
I1201 01:55:37.714853  2928 net.cpp:137] Memory required for data: 721160192
I1201 01:55:37.714856  2928 layer_factory.hpp:77] Creating layer pool1
I1201 01:55:37.714864  2928 net.cpp:84] Creating Layer pool1
I1201 01:55:37.714869  2928 net.cpp:406] pool1 <- conv1
I1201 01:55:37.714874  2928 net.cpp:380] pool1 -> pool1
I1201 01:55:37.714907  2928 net.cpp:122] Setting up pool1
I1201 01:55:37.714913  2928 net.cpp:129] Top shape: 128 128 28 24 (11010048)
I1201 01:55:37.714917  2928 net.cpp:137] Memory required for data: 765200384
I1201 01:55:37.714921  2928 layer_factory.hpp:77] Creating layer pool1_pool1_0_split
I1201 01:55:37.714927  2928 net.cpp:84] Creating Layer pool1_pool1_0_split
I1201 01:55:37.714942  2928 net.cpp:406] pool1_pool1_0_split <- pool1
I1201 01:55:37.714948  2928 net.cpp:380] pool1_pool1_0_split -> pool1_pool1_0_split_0
I1201 01:55:37.714954  2928 net.cpp:380] pool1_pool1_0_split -> pool1_pool1_0_split_1
I1201 01:55:37.714987  2928 net.cpp:122] Setting up pool1_pool1_0_split
I1201 01:55:37.714993  2928 net.cpp:129] Top shape: 128 128 28 24 (11010048)
I1201 01:55:37.714998  2928 net.cpp:129] Top shape: 128 128 28 24 (11010048)
I1201 01:55:37.715000  2928 net.cpp:137] Memory required for data: 853280768
I1201 01:55:37.715003  2928 layer_factory.hpp:77] Creating layer res2a_branch1
I1201 01:55:37.715010  2928 net.cpp:84] Creating Layer res2a_branch1
I1201 01:55:37.715013  2928 net.cpp:406] res2a_branch1 <- pool1_pool1_0_split_0
I1201 01:55:37.715018  2928 net.cpp:380] res2a_branch1 -> res2a_branch1
I1201 01:55:37.717432  2928 net.cpp:122] Setting up res2a_branch1
I1201 01:55:37.717442  2928 net.cpp:129] Top shape: 128 64 28 24 (5505024)
I1201 01:55:37.717447  2928 net.cpp:137] Memory required for data: 875300864
I1201 01:55:37.717453  2928 layer_factory.hpp:77] Creating layer bn2a_branch1
I1201 01:55:37.717469  2928 net.cpp:84] Creating Layer bn2a_branch1
I1201 01:55:37.717474  2928 net.cpp:406] bn2a_branch1 <- res2a_branch1
I1201 01:55:37.717480  2928 net.cpp:367] bn2a_branch1 -> res2a_branch1 (in-place)
I1201 01:55:37.717658  2928 net.cpp:122] Setting up bn2a_branch1
I1201 01:55:37.717664  2928 net.cpp:129] Top shape: 128 64 28 24 (5505024)
I1201 01:55:37.717669  2928 net.cpp:137] Memory required for data: 897320960
I1201 01:55:37.717679  2928 layer_factory.hpp:77] Creating layer scale2a_branch1
I1201 01:55:37.717685  2928 net.cpp:84] Creating Layer scale2a_branch1
I1201 01:55:37.717690  2928 net.cpp:406] scale2a_branch1 <- res2a_branch1
I1201 01:55:37.717695  2928 net.cpp:367] scale2a_branch1 -> res2a_branch1 (in-place)
I1201 01:55:37.717726  2928 layer_factory.hpp:77] Creating layer scale2a_branch1
I1201 01:55:37.717824  2928 net.cpp:122] Setting up scale2a_branch1
I1201 01:55:37.717833  2928 net.cpp:129] Top shape: 128 64 28 24 (5505024)
I1201 01:55:37.717835  2928 net.cpp:137] Memory required for data: 919341056
I1201 01:55:37.717842  2928 layer_factory.hpp:77] Creating layer res2a_branch2a
I1201 01:55:37.717852  2928 net.cpp:84] Creating Layer res2a_branch2a
I1201 01:55:37.717859  2928 net.cpp:406] res2a_branch2a <- pool1_pool1_0_split_1
I1201 01:55:37.717866  2928 net.cpp:380] res2a_branch2a -> res2a_branch2a
I1201 01:55:37.719768  2928 net.cpp:122] Setting up res2a_branch2a
I1201 01:55:37.719779  2928 net.cpp:129] Top shape: 128 64 28 24 (5505024)
I1201 01:55:37.719784  2928 net.cpp:137] Memory required for data: 941361152
I1201 01:55:37.719789  2928 layer_factory.hpp:77] Creating layer bn2a_branch2a
I1201 01:55:37.719797  2928 net.cpp:84] Creating Layer bn2a_branch2a
I1201 01:55:37.719802  2928 net.cpp:406] bn2a_branch2a <- res2a_branch2a
I1201 01:55:37.719808  2928 net.cpp:367] bn2a_branch2a -> res2a_branch2a (in-place)
I1201 01:55:37.719965  2928 net.cpp:122] Setting up bn2a_branch2a
I1201 01:55:37.719974  2928 net.cpp:129] Top shape: 128 64 28 24 (5505024)
I1201 01:55:37.719976  2928 net.cpp:137] Memory required for data: 963381248
I1201 01:55:37.719985  2928 layer_factory.hpp:77] Creating layer scale2a_branch2a
I1201 01:55:37.719993  2928 net.cpp:84] Creating Layer scale2a_branch2a
I1201 01:55:37.719998  2928 net.cpp:406] scale2a_branch2a <- res2a_branch2a
I1201 01:55:37.720003  2928 net.cpp:367] scale2a_branch2a -> res2a_branch2a (in-place)
I1201 01:55:37.720034  2928 layer_factory.hpp:77] Creating layer scale2a_branch2a
I1201 01:55:37.720126  2928 net.cpp:122] Setting up scale2a_branch2a
I1201 01:55:37.720134  2928 net.cpp:129] Top shape: 128 64 28 24 (5505024)
I1201 01:55:37.720137  2928 net.cpp:137] Memory required for data: 985401344
I1201 01:55:37.720149  2928 layer_factory.hpp:77] Creating layer res2a_branch2a_relu
I1201 01:55:37.720155  2928 net.cpp:84] Creating Layer res2a_branch2a_relu
I1201 01:55:37.720160  2928 net.cpp:406] res2a_branch2a_relu <- res2a_branch2a
I1201 01:55:37.720175  2928 net.cpp:367] res2a_branch2a_relu -> res2a_branch2a (in-place)
I1201 01:55:37.720327  2928 net.cpp:122] Setting up res2a_branch2a_relu
I1201 01:55:37.720336  2928 net.cpp:129] Top shape: 128 64 28 24 (5505024)
I1201 01:55:37.720340  2928 net.cpp:137] Memory required for data: 1007421440
I1201 01:55:37.720343  2928 layer_factory.hpp:77] Creating layer res2a_branch2b
I1201 01:55:37.720352  2928 net.cpp:84] Creating Layer res2a_branch2b
I1201 01:55:37.720357  2928 net.cpp:406] res2a_branch2b <- res2a_branch2a
I1201 01:55:37.720363  2928 net.cpp:380] res2a_branch2b -> res2a_branch2b
I1201 01:55:37.721377  2928 net.cpp:122] Setting up res2a_branch2b
I1201 01:55:37.721390  2928 net.cpp:129] Top shape: 128 64 28 24 (5505024)
I1201 01:55:37.721392  2928 net.cpp:137] Memory required for data: 1029441536
I1201 01:55:37.721398  2928 layer_factory.hpp:77] Creating layer bn2a_branch2b
I1201 01:55:37.721406  2928 net.cpp:84] Creating Layer bn2a_branch2b
I1201 01:55:37.721415  2928 net.cpp:406] bn2a_branch2b <- res2a_branch2b
I1201 01:55:37.721421  2928 net.cpp:367] bn2a_branch2b -> res2a_branch2b (in-place)
I1201 01:55:37.721573  2928 net.cpp:122] Setting up bn2a_branch2b
I1201 01:55:37.721581  2928 net.cpp:129] Top shape: 128 64 28 24 (5505024)
I1201 01:55:37.721593  2928 net.cpp:137] Memory required for data: 1051461632
I1201 01:55:37.721602  2928 layer_factory.hpp:77] Creating layer scale2a_branch2b
I1201 01:55:37.721611  2928 net.cpp:84] Creating Layer scale2a_branch2b
I1201 01:55:37.721614  2928 net.cpp:406] scale2a_branch2b <- res2a_branch2b
I1201 01:55:37.721621  2928 net.cpp:367] scale2a_branch2b -> res2a_branch2b (in-place)
I1201 01:55:37.721650  2928 layer_factory.hpp:77] Creating layer scale2a_branch2b
I1201 01:55:37.721743  2928 net.cpp:122] Setting up scale2a_branch2b
I1201 01:55:37.721751  2928 net.cpp:129] Top shape: 128 64 28 24 (5505024)
I1201 01:55:37.721755  2928 net.cpp:137] Memory required for data: 1073481728
I1201 01:55:37.721760  2928 layer_factory.hpp:77] Creating layer res2a
I1201 01:55:37.721779  2928 net.cpp:84] Creating Layer res2a
I1201 01:55:37.721786  2928 net.cpp:406] res2a <- res2a_branch1
I1201 01:55:37.721789  2928 net.cpp:406] res2a <- res2a_branch2b
I1201 01:55:37.721796  2928 net.cpp:380] res2a -> res2a
I1201 01:55:37.721823  2928 net.cpp:122] Setting up res2a
I1201 01:55:37.721830  2928 net.cpp:129] Top shape: 128 64 28 24 (5505024)
I1201 01:55:37.721833  2928 net.cpp:137] Memory required for data: 1095501824
I1201 01:55:37.721837  2928 layer_factory.hpp:77] Creating layer res2a_relu
I1201 01:55:37.721843  2928 net.cpp:84] Creating Layer res2a_relu
I1201 01:55:37.721848  2928 net.cpp:406] res2a_relu <- res2a
I1201 01:55:37.721853  2928 net.cpp:367] res2a_relu -> res2a (in-place)
I1201 01:55:37.722298  2928 net.cpp:122] Setting up res2a_relu
I1201 01:55:37.722308  2928 net.cpp:129] Top shape: 128 64 28 24 (5505024)
I1201 01:55:37.722312  2928 net.cpp:137] Memory required for data: 1117521920
I1201 01:55:37.722316  2928 layer_factory.hpp:77] Creating layer res2a_res2a_relu_0_split
I1201 01:55:37.722322  2928 net.cpp:84] Creating Layer res2a_res2a_relu_0_split
I1201 01:55:37.722326  2928 net.cpp:406] res2a_res2a_relu_0_split <- res2a
I1201 01:55:37.722332  2928 net.cpp:380] res2a_res2a_relu_0_split -> res2a_res2a_relu_0_split_0
I1201 01:55:37.722342  2928 net.cpp:380] res2a_res2a_relu_0_split -> res2a_res2a_relu_0_split_1
I1201 01:55:37.722376  2928 net.cpp:122] Setting up res2a_res2a_relu_0_split
I1201 01:55:37.722384  2928 net.cpp:129] Top shape: 128 64 28 24 (5505024)
I1201 01:55:37.722388  2928 net.cpp:129] Top shape: 128 64 28 24 (5505024)
I1201 01:55:37.722393  2928 net.cpp:137] Memory required for data: 1161562112
I1201 01:55:37.722395  2928 layer_factory.hpp:77] Creating layer res2b_branch2a
I1201 01:55:37.722404  2928 net.cpp:84] Creating Layer res2b_branch2a
I1201 01:55:37.722409  2928 net.cpp:406] res2b_branch2a <- res2a_res2a_relu_0_split_0
I1201 01:55:37.722415  2928 net.cpp:380] res2b_branch2a -> res2b_branch2a
I1201 01:55:37.724841  2928 net.cpp:122] Setting up res2b_branch2a
I1201 01:55:37.724861  2928 net.cpp:129] Top shape: 128 64 28 24 (5505024)
I1201 01:55:37.724865  2928 net.cpp:137] Memory required for data: 1183582208
I1201 01:55:37.724871  2928 layer_factory.hpp:77] Creating layer bn2b_branch2a
I1201 01:55:37.724879  2928 net.cpp:84] Creating Layer bn2b_branch2a
I1201 01:55:37.724884  2928 net.cpp:406] bn2b_branch2a <- res2b_branch2a
I1201 01:55:37.724889  2928 net.cpp:367] bn2b_branch2a -> res2b_branch2a (in-place)
I1201 01:55:37.725045  2928 net.cpp:122] Setting up bn2b_branch2a
I1201 01:55:37.725052  2928 net.cpp:129] Top shape: 128 64 28 24 (5505024)
I1201 01:55:37.725055  2928 net.cpp:137] Memory required for data: 1205602304
I1201 01:55:37.725064  2928 layer_factory.hpp:77] Creating layer scale2b_branch2a
I1201 01:55:37.725071  2928 net.cpp:84] Creating Layer scale2b_branch2a
I1201 01:55:37.725075  2928 net.cpp:406] scale2b_branch2a <- res2b_branch2a
I1201 01:55:37.725080  2928 net.cpp:367] scale2b_branch2a -> res2b_branch2a (in-place)
I1201 01:55:37.725112  2928 layer_factory.hpp:77] Creating layer scale2b_branch2a
I1201 01:55:37.725205  2928 net.cpp:122] Setting up scale2b_branch2a
I1201 01:55:37.725214  2928 net.cpp:129] Top shape: 128 64 28 24 (5505024)
I1201 01:55:37.725216  2928 net.cpp:137] Memory required for data: 1227622400
I1201 01:55:37.725224  2928 layer_factory.hpp:77] Creating layer res2b_branch2a_relu
I1201 01:55:37.725230  2928 net.cpp:84] Creating Layer res2b_branch2a_relu
I1201 01:55:37.725234  2928 net.cpp:406] res2b_branch2a_relu <- res2b_branch2a
I1201 01:55:37.725240  2928 net.cpp:367] res2b_branch2a_relu -> res2b_branch2a (in-place)
I1201 01:55:37.725680  2928 net.cpp:122] Setting up res2b_branch2a_relu
I1201 01:55:37.725692  2928 net.cpp:129] Top shape: 128 64 28 24 (5505024)
I1201 01:55:37.725694  2928 net.cpp:137] Memory required for data: 1249642496
I1201 01:55:37.725698  2928 layer_factory.hpp:77] Creating layer res2b_branch2b
I1201 01:55:37.725708  2928 net.cpp:84] Creating Layer res2b_branch2b
I1201 01:55:37.725713  2928 net.cpp:406] res2b_branch2b <- res2b_branch2a
I1201 01:55:37.725719  2928 net.cpp:380] res2b_branch2b -> res2b_branch2b
I1201 01:55:37.727421  2928 net.cpp:122] Setting up res2b_branch2b
I1201 01:55:37.727435  2928 net.cpp:129] Top shape: 128 64 28 24 (5505024)
I1201 01:55:37.727439  2928 net.cpp:137] Memory required for data: 1271662592
I1201 01:55:37.727445  2928 layer_factory.hpp:77] Creating layer bn2b_branch2b
I1201 01:55:37.727453  2928 net.cpp:84] Creating Layer bn2b_branch2b
I1201 01:55:37.727458  2928 net.cpp:406] bn2b_branch2b <- res2b_branch2b
I1201 01:55:37.727464  2928 net.cpp:367] bn2b_branch2b -> res2b_branch2b (in-place)
I1201 01:55:37.727624  2928 net.cpp:122] Setting up bn2b_branch2b
I1201 01:55:37.727632  2928 net.cpp:129] Top shape: 128 64 28 24 (5505024)
I1201 01:55:37.727635  2928 net.cpp:137] Memory required for data: 1293682688
I1201 01:55:37.727648  2928 layer_factory.hpp:77] Creating layer scale2b_branch2b
I1201 01:55:37.727655  2928 net.cpp:84] Creating Layer scale2b_branch2b
I1201 01:55:37.727660  2928 net.cpp:406] scale2b_branch2b <- res2b_branch2b
I1201 01:55:37.727665  2928 net.cpp:367] scale2b_branch2b -> res2b_branch2b (in-place)
I1201 01:55:37.727697  2928 layer_factory.hpp:77] Creating layer scale2b_branch2b
I1201 01:55:37.727793  2928 net.cpp:122] Setting up scale2b_branch2b
I1201 01:55:37.727802  2928 net.cpp:129] Top shape: 128 64 28 24 (5505024)
I1201 01:55:37.727804  2928 net.cpp:137] Memory required for data: 1315702784
I1201 01:55:37.727811  2928 layer_factory.hpp:77] Creating layer res2b
I1201 01:55:37.727818  2928 net.cpp:84] Creating Layer res2b
I1201 01:55:37.727824  2928 net.cpp:406] res2b <- res2a_res2a_relu_0_split_1
I1201 01:55:37.727828  2928 net.cpp:406] res2b <- res2b_branch2b
I1201 01:55:37.727834  2928 net.cpp:380] res2b -> res2b
I1201 01:55:37.727859  2928 net.cpp:122] Setting up res2b
I1201 01:55:37.727865  2928 net.cpp:129] Top shape: 128 64 28 24 (5505024)
I1201 01:55:37.727869  2928 net.cpp:137] Memory required for data: 1337722880
I1201 01:55:37.727872  2928 layer_factory.hpp:77] Creating layer res2b_relu
I1201 01:55:37.727886  2928 net.cpp:84] Creating Layer res2b_relu
I1201 01:55:37.727892  2928 net.cpp:406] res2b_relu <- res2b
I1201 01:55:37.727897  2928 net.cpp:367] res2b_relu -> res2b (in-place)
I1201 01:55:37.728868  2928 net.cpp:122] Setting up res2b_relu
I1201 01:55:37.728878  2928 net.cpp:129] Top shape: 128 64 28 24 (5505024)
I1201 01:55:37.728880  2928 net.cpp:137] Memory required for data: 1359742976
I1201 01:55:37.728884  2928 layer_factory.hpp:77] Creating layer res2b_res2b_relu_0_split
I1201 01:55:37.728890  2928 net.cpp:84] Creating Layer res2b_res2b_relu_0_split
I1201 01:55:37.728894  2928 net.cpp:406] res2b_res2b_relu_0_split <- res2b
I1201 01:55:37.728900  2928 net.cpp:380] res2b_res2b_relu_0_split -> res2b_res2b_relu_0_split_0
I1201 01:55:37.728909  2928 net.cpp:380] res2b_res2b_relu_0_split -> res2b_res2b_relu_0_split_1
I1201 01:55:37.728943  2928 net.cpp:122] Setting up res2b_res2b_relu_0_split
I1201 01:55:37.728950  2928 net.cpp:129] Top shape: 128 64 28 24 (5505024)
I1201 01:55:37.728955  2928 net.cpp:129] Top shape: 128 64 28 24 (5505024)
I1201 01:55:37.728958  2928 net.cpp:137] Memory required for data: 1403783168
I1201 01:55:37.728962  2928 layer_factory.hpp:77] Creating layer res3a_branch1
I1201 01:55:37.728971  2928 net.cpp:84] Creating Layer res3a_branch1
I1201 01:55:37.728976  2928 net.cpp:406] res3a_branch1 <- res2b_res2b_relu_0_split_0
I1201 01:55:37.728983  2928 net.cpp:380] res3a_branch1 -> res3a_branch1
I1201 01:55:37.730098  2928 net.cpp:122] Setting up res3a_branch1
I1201 01:55:37.730111  2928 net.cpp:129] Top shape: 128 128 14 12 (2752512)
I1201 01:55:37.730115  2928 net.cpp:137] Memory required for data: 1414793216
I1201 01:55:37.730123  2928 layer_factory.hpp:77] Creating layer bn3a_branch1
I1201 01:55:37.730134  2928 net.cpp:84] Creating Layer bn3a_branch1
I1201 01:55:37.730139  2928 net.cpp:406] bn3a_branch1 <- res3a_branch1
I1201 01:55:37.730144  2928 net.cpp:367] bn3a_branch1 -> res3a_branch1 (in-place)
I1201 01:55:37.730301  2928 net.cpp:122] Setting up bn3a_branch1
I1201 01:55:37.730310  2928 net.cpp:129] Top shape: 128 128 14 12 (2752512)
I1201 01:55:37.730314  2928 net.cpp:137] Memory required for data: 1425803264
I1201 01:55:37.730322  2928 layer_factory.hpp:77] Creating layer scale3a_branch1
I1201 01:55:37.730330  2928 net.cpp:84] Creating Layer scale3a_branch1
I1201 01:55:37.730334  2928 net.cpp:406] scale3a_branch1 <- res3a_branch1
I1201 01:55:37.730340  2928 net.cpp:367] scale3a_branch1 -> res3a_branch1 (in-place)
I1201 01:55:37.730372  2928 layer_factory.hpp:77] Creating layer scale3a_branch1
I1201 01:55:37.730460  2928 net.cpp:122] Setting up scale3a_branch1
I1201 01:55:37.730469  2928 net.cpp:129] Top shape: 128 128 14 12 (2752512)
I1201 01:55:37.730473  2928 net.cpp:137] Memory required for data: 1436813312
I1201 01:55:37.730479  2928 layer_factory.hpp:77] Creating layer res3a_branch2a
I1201 01:55:37.730490  2928 net.cpp:84] Creating Layer res3a_branch2a
I1201 01:55:37.730495  2928 net.cpp:406] res3a_branch2a <- res2b_res2b_relu_0_split_1
I1201 01:55:37.730502  2928 net.cpp:380] res3a_branch2a -> res3a_branch2a
I1201 01:55:37.731753  2928 net.cpp:122] Setting up res3a_branch2a
I1201 01:55:37.731765  2928 net.cpp:129] Top shape: 128 128 14 12 (2752512)
I1201 01:55:37.731770  2928 net.cpp:137] Memory required for data: 1447823360
I1201 01:55:37.731775  2928 layer_factory.hpp:77] Creating layer bn3a_branch2a
I1201 01:55:37.731782  2928 net.cpp:84] Creating Layer bn3a_branch2a
I1201 01:55:37.731788  2928 net.cpp:406] bn3a_branch2a <- res3a_branch2a
I1201 01:55:37.731796  2928 net.cpp:367] bn3a_branch2a -> res3a_branch2a (in-place)
I1201 01:55:37.731945  2928 net.cpp:122] Setting up bn3a_branch2a
I1201 01:55:37.731952  2928 net.cpp:129] Top shape: 128 128 14 12 (2752512)
I1201 01:55:37.731956  2928 net.cpp:137] Memory required for data: 1458833408
I1201 01:55:37.731963  2928 layer_factory.hpp:77] Creating layer scale3a_branch2a
I1201 01:55:37.731971  2928 net.cpp:84] Creating Layer scale3a_branch2a
I1201 01:55:37.731987  2928 net.cpp:406] scale3a_branch2a <- res3a_branch2a
I1201 01:55:37.731993  2928 net.cpp:367] scale3a_branch2a -> res3a_branch2a (in-place)
I1201 01:55:37.732025  2928 layer_factory.hpp:77] Creating layer scale3a_branch2a
I1201 01:55:37.732112  2928 net.cpp:122] Setting up scale3a_branch2a
I1201 01:55:37.732120  2928 net.cpp:129] Top shape: 128 128 14 12 (2752512)
I1201 01:55:37.732123  2928 net.cpp:137] Memory required for data: 1469843456
I1201 01:55:37.732131  2928 layer_factory.hpp:77] Creating layer res3a_branch2a_relu
I1201 01:55:37.732138  2928 net.cpp:84] Creating Layer res3a_branch2a_relu
I1201 01:55:37.732142  2928 net.cpp:406] res3a_branch2a_relu <- res3a_branch2a
I1201 01:55:37.732147  2928 net.cpp:367] res3a_branch2a_relu -> res3a_branch2a (in-place)
I1201 01:55:37.732292  2928 net.cpp:122] Setting up res3a_branch2a_relu
I1201 01:55:37.732301  2928 net.cpp:129] Top shape: 128 128 14 12 (2752512)
I1201 01:55:37.732304  2928 net.cpp:137] Memory required for data: 1480853504
I1201 01:55:37.732308  2928 layer_factory.hpp:77] Creating layer res3a_branch2b
I1201 01:55:37.732317  2928 net.cpp:84] Creating Layer res3a_branch2b
I1201 01:55:37.732322  2928 net.cpp:406] res3a_branch2b <- res3a_branch2a
I1201 01:55:37.732328  2928 net.cpp:380] res3a_branch2b -> res3a_branch2b
I1201 01:55:37.734098  2928 net.cpp:122] Setting up res3a_branch2b
I1201 01:55:37.734110  2928 net.cpp:129] Top shape: 128 128 14 12 (2752512)
I1201 01:55:37.734114  2928 net.cpp:137] Memory required for data: 1491863552
I1201 01:55:37.734120  2928 layer_factory.hpp:77] Creating layer bn3a_branch2b
I1201 01:55:37.734127  2928 net.cpp:84] Creating Layer bn3a_branch2b
I1201 01:55:37.734133  2928 net.cpp:406] bn3a_branch2b <- res3a_branch2b
I1201 01:55:37.734138  2928 net.cpp:367] bn3a_branch2b -> res3a_branch2b (in-place)
I1201 01:55:37.734287  2928 net.cpp:122] Setting up bn3a_branch2b
I1201 01:55:37.734294  2928 net.cpp:129] Top shape: 128 128 14 12 (2752512)
I1201 01:55:37.734298  2928 net.cpp:137] Memory required for data: 1502873600
I1201 01:55:37.734306  2928 layer_factory.hpp:77] Creating layer scale3a_branch2b
I1201 01:55:37.734313  2928 net.cpp:84] Creating Layer scale3a_branch2b
I1201 01:55:37.734318  2928 net.cpp:406] scale3a_branch2b <- res3a_branch2b
I1201 01:55:37.734323  2928 net.cpp:367] scale3a_branch2b -> res3a_branch2b (in-place)
I1201 01:55:37.734354  2928 layer_factory.hpp:77] Creating layer scale3a_branch2b
I1201 01:55:37.734441  2928 net.cpp:122] Setting up scale3a_branch2b
I1201 01:55:37.734448  2928 net.cpp:129] Top shape: 128 128 14 12 (2752512)
I1201 01:55:37.734452  2928 net.cpp:137] Memory required for data: 1513883648
I1201 01:55:37.734458  2928 layer_factory.hpp:77] Creating layer res3a
I1201 01:55:37.734467  2928 net.cpp:84] Creating Layer res3a
I1201 01:55:37.734472  2928 net.cpp:406] res3a <- res3a_branch1
I1201 01:55:37.734477  2928 net.cpp:406] res3a <- res3a_branch2b
I1201 01:55:37.734483  2928 net.cpp:380] res3a -> res3a
I1201 01:55:37.734503  2928 net.cpp:122] Setting up res3a
I1201 01:55:37.734511  2928 net.cpp:129] Top shape: 128 128 14 12 (2752512)
I1201 01:55:37.734514  2928 net.cpp:137] Memory required for data: 1524893696
I1201 01:55:37.734517  2928 layer_factory.hpp:77] Creating layer res3a_relu
I1201 01:55:37.734524  2928 net.cpp:84] Creating Layer res3a_relu
I1201 01:55:37.734527  2928 net.cpp:406] res3a_relu <- res3a
I1201 01:55:37.734532  2928 net.cpp:367] res3a_relu -> res3a (in-place)
I1201 01:55:37.734979  2928 net.cpp:122] Setting up res3a_relu
I1201 01:55:37.734992  2928 net.cpp:129] Top shape: 128 128 14 12 (2752512)
I1201 01:55:37.734994  2928 net.cpp:137] Memory required for data: 1535903744
I1201 01:55:37.734998  2928 layer_factory.hpp:77] Creating layer res3a_res3a_relu_0_split
I1201 01:55:37.735005  2928 net.cpp:84] Creating Layer res3a_res3a_relu_0_split
I1201 01:55:37.735010  2928 net.cpp:406] res3a_res3a_relu_0_split <- res3a
I1201 01:55:37.735016  2928 net.cpp:380] res3a_res3a_relu_0_split -> res3a_res3a_relu_0_split_0
I1201 01:55:37.735025  2928 net.cpp:380] res3a_res3a_relu_0_split -> res3a_res3a_relu_0_split_1
I1201 01:55:37.735069  2928 net.cpp:122] Setting up res3a_res3a_relu_0_split
I1201 01:55:37.735077  2928 net.cpp:129] Top shape: 128 128 14 12 (2752512)
I1201 01:55:37.735081  2928 net.cpp:129] Top shape: 128 128 14 12 (2752512)
I1201 01:55:37.735085  2928 net.cpp:137] Memory required for data: 1557923840
I1201 01:55:37.735088  2928 layer_factory.hpp:77] Creating layer res3b_branch2a
I1201 01:55:37.735096  2928 net.cpp:84] Creating Layer res3b_branch2a
I1201 01:55:37.735102  2928 net.cpp:406] res3b_branch2a <- res3a_res3a_relu_0_split_0
I1201 01:55:37.735108  2928 net.cpp:380] res3b_branch2a -> res3b_branch2a
I1201 01:55:37.738215  2928 net.cpp:122] Setting up res3b_branch2a
I1201 01:55:37.738229  2928 net.cpp:129] Top shape: 128 128 14 12 (2752512)
I1201 01:55:37.738232  2928 net.cpp:137] Memory required for data: 1568933888
I1201 01:55:37.738238  2928 layer_factory.hpp:77] Creating layer bn3b_branch2a
I1201 01:55:37.738245  2928 net.cpp:84] Creating Layer bn3b_branch2a
I1201 01:55:37.738251  2928 net.cpp:406] bn3b_branch2a <- res3b_branch2a
I1201 01:55:37.738256  2928 net.cpp:367] bn3b_branch2a -> res3b_branch2a (in-place)
I1201 01:55:37.738409  2928 net.cpp:122] Setting up bn3b_branch2a
I1201 01:55:37.738417  2928 net.cpp:129] Top shape: 128 128 14 12 (2752512)
I1201 01:55:37.738420  2928 net.cpp:137] Memory required for data: 1579943936
I1201 01:55:37.738430  2928 layer_factory.hpp:77] Creating layer scale3b_branch2a
I1201 01:55:37.738436  2928 net.cpp:84] Creating Layer scale3b_branch2a
I1201 01:55:37.738440  2928 net.cpp:406] scale3b_branch2a <- res3b_branch2a
I1201 01:55:37.738446  2928 net.cpp:367] scale3b_branch2a -> res3b_branch2a (in-place)
I1201 01:55:37.738477  2928 layer_factory.hpp:77] Creating layer scale3b_branch2a
I1201 01:55:37.738564  2928 net.cpp:122] Setting up scale3b_branch2a
I1201 01:55:37.738572  2928 net.cpp:129] Top shape: 128 128 14 12 (2752512)
I1201 01:55:37.738576  2928 net.cpp:137] Memory required for data: 1590953984
I1201 01:55:37.738582  2928 layer_factory.hpp:77] Creating layer res3b_branch2a_relu
I1201 01:55:37.738590  2928 net.cpp:84] Creating Layer res3b_branch2a_relu
I1201 01:55:37.738595  2928 net.cpp:406] res3b_branch2a_relu <- res3b_branch2a
I1201 01:55:37.738600  2928 net.cpp:367] res3b_branch2a_relu -> res3b_branch2a (in-place)
I1201 01:55:37.738756  2928 net.cpp:122] Setting up res3b_branch2a_relu
I1201 01:55:37.738765  2928 net.cpp:129] Top shape: 128 128 14 12 (2752512)
I1201 01:55:37.738770  2928 net.cpp:137] Memory required for data: 1601964032
I1201 01:55:37.738772  2928 layer_factory.hpp:77] Creating layer res3b_branch2b
I1201 01:55:37.738782  2928 net.cpp:84] Creating Layer res3b_branch2b
I1201 01:55:37.738787  2928 net.cpp:406] res3b_branch2b <- res3b_branch2a
I1201 01:55:37.738793  2928 net.cpp:380] res3b_branch2b -> res3b_branch2b
I1201 01:55:37.741178  2928 net.cpp:122] Setting up res3b_branch2b
I1201 01:55:37.741189  2928 net.cpp:129] Top shape: 128 128 14 12 (2752512)
I1201 01:55:37.741194  2928 net.cpp:137] Memory required for data: 1612974080
I1201 01:55:37.741199  2928 layer_factory.hpp:77] Creating layer bn3b_branch2b
I1201 01:55:37.741206  2928 net.cpp:84] Creating Layer bn3b_branch2b
I1201 01:55:37.741211  2928 net.cpp:406] bn3b_branch2b <- res3b_branch2b
I1201 01:55:37.741217  2928 net.cpp:367] bn3b_branch2b -> res3b_branch2b (in-place)
I1201 01:55:37.741371  2928 net.cpp:122] Setting up bn3b_branch2b
I1201 01:55:37.741379  2928 net.cpp:129] Top shape: 128 128 14 12 (2752512)
I1201 01:55:37.741381  2928 net.cpp:137] Memory required for data: 1623984128
I1201 01:55:37.741389  2928 layer_factory.hpp:77] Creating layer scale3b_branch2b
I1201 01:55:37.741398  2928 net.cpp:84] Creating Layer scale3b_branch2b
I1201 01:55:37.741403  2928 net.cpp:406] scale3b_branch2b <- res3b_branch2b
I1201 01:55:37.741408  2928 net.cpp:367] scale3b_branch2b -> res3b_branch2b (in-place)
I1201 01:55:37.741439  2928 layer_factory.hpp:77] Creating layer scale3b_branch2b
I1201 01:55:37.741528  2928 net.cpp:122] Setting up scale3b_branch2b
I1201 01:55:37.741544  2928 net.cpp:129] Top shape: 128 128 14 12 (2752512)
I1201 01:55:37.741547  2928 net.cpp:137] Memory required for data: 1634994176
I1201 01:55:37.741559  2928 layer_factory.hpp:77] Creating layer res3b
I1201 01:55:37.741567  2928 net.cpp:84] Creating Layer res3b
I1201 01:55:37.741572  2928 net.cpp:406] res3b <- res3a_res3a_relu_0_split_1
I1201 01:55:37.741577  2928 net.cpp:406] res3b <- res3b_branch2b
I1201 01:55:37.741583  2928 net.cpp:380] res3b -> res3b
I1201 01:55:37.741607  2928 net.cpp:122] Setting up res3b
I1201 01:55:37.741614  2928 net.cpp:129] Top shape: 128 128 14 12 (2752512)
I1201 01:55:37.741617  2928 net.cpp:137] Memory required for data: 1646004224
I1201 01:55:37.741621  2928 layer_factory.hpp:77] Creating layer fc1
I1201 01:55:37.741629  2928 net.cpp:84] Creating Layer fc1
I1201 01:55:37.741634  2928 net.cpp:406] fc1 <- res3b
I1201 01:55:37.741641  2928 net.cpp:380] fc1 -> fc1
I1201 01:55:37.800077  2928 net.cpp:122] Setting up fc1
I1201 01:55:37.800112  2928 net.cpp:129] Top shape: 128 512 (65536)
I1201 01:55:37.800117  2928 net.cpp:137] Memory required for data: 1646266368
I1201 01:55:37.800132  2928 layer_factory.hpp:77] Creating layer norm1
I1201 01:55:37.800148  2928 net.cpp:84] Creating Layer norm1
I1201 01:55:37.800153  2928 net.cpp:406] norm1 <- fc1
I1201 01:55:37.800161  2928 net.cpp:380] norm1 -> norm1
I1201 01:55:37.800217  2928 net.cpp:122] Setting up norm1
I1201 01:55:37.800225  2928 net.cpp:129] Top shape: 128 512 1 1 (65536)
I1201 01:55:37.800228  2928 net.cpp:137] Memory required for data: 1646528512
I1201 01:55:37.800232  2928 layer_factory.hpp:77] Creating layer fc2_l2
I1201 01:55:37.800241  2928 net.cpp:84] Creating Layer fc2_l2
I1201 01:55:37.800246  2928 net.cpp:406] fc2_l2 <- norm1
I1201 01:55:37.800252  2928 net.cpp:380] fc2_l2 -> fc2
I1201 01:55:37.827355  2928 net.cpp:122] Setting up fc2_l2
I1201 01:55:37.827391  2928 net.cpp:129] Top shape: 128 10575 (1353600)
I1201 01:55:37.827395  2928 net.cpp:137] Memory required for data: 1651942912
I1201 01:55:37.827409  2928 layer_factory.hpp:77] Creating layer fc2_fc2_l2_0_split
I1201 01:55:37.827422  2928 net.cpp:84] Creating Layer fc2_fc2_l2_0_split
I1201 01:55:37.827426  2928 net.cpp:406] fc2_fc2_l2_0_split <- fc2
I1201 01:55:37.827433  2928 net.cpp:380] fc2_fc2_l2_0_split -> fc2_fc2_l2_0_split_0
I1201 01:55:37.827445  2928 net.cpp:380] fc2_fc2_l2_0_split -> fc2_fc2_l2_0_split_1
I1201 01:55:37.827481  2928 net.cpp:122] Setting up fc2_fc2_l2_0_split
I1201 01:55:37.827487  2928 net.cpp:129] Top shape: 128 10575 (1353600)
I1201 01:55:37.827491  2928 net.cpp:129] Top shape: 128 10575 (1353600)
I1201 01:55:37.827492  2928 net.cpp:137] Memory required for data: 1662771712
I1201 01:55:37.827495  2928 layer_factory.hpp:77] Creating layer label_specific_margin
I1201 01:55:37.827502  2928 net.cpp:84] Creating Layer label_specific_margin
I1201 01:55:37.827505  2928 net.cpp:406] label_specific_margin <- fc2_fc2_l2_0_split_0
I1201 01:55:37.827508  2928 net.cpp:406] label_specific_margin <- label_data_1_split_0
I1201 01:55:37.827513  2928 net.cpp:380] label_specific_margin -> fc2_margin
I1201 01:55:37.827531  2928 net.cpp:122] Setting up label_specific_margin
I1201 01:55:37.827536  2928 net.cpp:129] Top shape: 128 10575 (1353600)
I1201 01:55:37.827538  2928 net.cpp:137] Memory required for data: 1668186112
I1201 01:55:37.827541  2928 layer_factory.hpp:77] Creating layer fc2_margin_scale
I1201 01:55:37.827548  2928 net.cpp:84] Creating Layer fc2_margin_scale
I1201 01:55:37.827551  2928 net.cpp:406] fc2_margin_scale <- fc2_margin
I1201 01:55:37.827556  2928 net.cpp:380] fc2_margin_scale -> fc2_margin_scale
I1201 01:55:37.827642  2928 net.cpp:122] Setting up fc2_margin_scale
I1201 01:55:37.827648  2928 net.cpp:129] Top shape: 128 10575 (1353600)
I1201 01:55:37.827651  2928 net.cpp:137] Memory required for data: 1673600512
I1201 01:55:37.827654  2928 layer_factory.hpp:77] Creating layer softmax_loss
I1201 01:55:37.827661  2928 net.cpp:84] Creating Layer softmax_loss
I1201 01:55:37.827663  2928 net.cpp:406] softmax_loss <- fc2_margin_scale
I1201 01:55:37.827692  2928 net.cpp:406] softmax_loss <- label_data_1_split_1
I1201 01:55:37.827697  2928 net.cpp:380] softmax_loss -> softmax_loss
…
